checkpoints/best_neural_regressor.pt (torch, 29989 bytes, 9 tensors)

stack.0.weight f4 [48, 29]
000000 33 35 fd 3c 7b 7e b5 3d 63 7e a4 bb 42 71 12 3d
       0.030909156 0.08862015 -0.0050199493 0.035752542
000010 ec 82 e7 3d 68 f9 6b 3d 6c 63 04 be 9a 86 5e 3d
       0.11304268 0.0576109 -0.12928551 0.054327585
000020 6e ac 70 3d 2f 5f d3 bb 86 ba ab bd 1b ae e8 3d
       0.05875819 -0.0064505558 -0.08385186 0.11361333
000030 41 7a a6 bc 2a 32 c0 ba 11 33 0e 3e 43 9b f6 3b
       -0.020321967 -0.0014663388 0.13886668 0.007525833
000040 e8 7f f4 3d 00 37 03 3e 03 14 d9 3d ad 40 9c 3c
       0.11938459 0.1281395 0.1059952 0.019073809
000050 f4 eb b6 3e fa 7f da bd b0 54 92 bd bf c4 2f be
       0.35726893 -0.10668941 -0.07145059 -0.17164896
000060 46 31 8e 3c 0a ce e0 bd 6e aa 99 3d 47 02 68 be
       0.01735748 -0.10976799 0.0750321 -0.22657119
000070 60 19 88 be 57 57 c5 3c 2a e3 3b bc 08 3c 74 bc
       -0.2658186 0.024089498 -0.011467734 -0.014906891
000080 b8 32 5d 3c cc f9 f4 3c 45 8e 67 bd 82 45 c8 3d
       0.013500862 0.029904269 -0.056532163 0.097788826
000090 35 17 cf bd d7 0c 1f bc ac 2c b9 3c 84 81 09 3d
       -0.10111848 -0.009707651 0.022604309 0.03357078
0000a0 02 c7 33 3b 6b d6 84 3c 37 c1 69 bc 22 ca bb 3a
       0.002743185 0.016215524 -0.014267257 0.0014327208
0000b0 34 4d 63 bc 0f 8f bf 3b 2c 3d 2b 3d d0 25 76 3b
       -0.013873387 0.0058459113 0.041806385 0.003755916
0000c0 19 ea 74 bd dd 06 f5 bd dc 42 9e bb d7 57 30 bc
       -0.059793565 -0.119642 -0.0048297476 -0.01076313
0000d0 35 88 b4 bc 25 35 d1 3c 24 b8 4b 3c b1 98 4b bc
       -0.022037605 0.025538037 0.012434039 -0.012426541
0000e0 84 c5 65 bc 63 ce 3a bd e1 9d cd 3d 48 08 58 bd
       -0.014024142 -0.045606982 0.10039879 -0.052742273
0000f0 87 1f 23 3e bf 55 81 bd db 57 e9 bd 35 58 fd bc
       0.15929995 -0.06315183 -0.1139371 -0.03092585
000100 4a df 10 3d 4f 53 ac 3c 72 11 4e bc db d6 c4 3d
       0.035369195 0.021035818 -0.0125774015 0.09611293
000110 fc bf 15 3e dc 41 2f bd ee 56 c3 bd 4e 5d c1 bb
       0.14624017 -0.042787418 -0.09538065 -0.0059010154
000120 53 87 72 be 77 9d 8f 3d da 3c d5 bd e6 19 2d 3e
       -0.23684435 0.07012456 -0.10411997 0.1690441
000130 32 74 24 3e 09 5c e4 3d a8 3e 65 3e e0 64 49 be
       0.1605995 0.11150367 0.22387183 -0.19667387
000140 3e fd dd 3c 3f bc 89 bd c3 e5 75 3d 49 13 48 be
       0.027098294 -0.06725358 0.06003357 -0.19538607
000150 d9 4b 28 3c b8 ed 31 be 3a 96 ce 3c d3 3b f7 bd
       0.01027199 -0.17375839 0.025218118 -0.120719574
000160 b5 42 18 bd 00 93 20 3e 79 63 26 3d 5e 52 e8 3d
       -0.03717299 0.15681076 0.04062221 0.11343835
000170 bb 6e e5 bd 37 ad 97 3d f9 70 33 be 47 e0 a9 bb
       -0.11202761 0.07406085 -0.17523564 -0.0051842066
000180 00 5a 37 be ec 19 78 3d e0 98 0a 3e a5 0b 35 bb
       -0.17905426 0.060571596 0.1353488 -0.002762535
000190 7b 13 40 3d 23 a0 b9 bd 04 b2 cb 3c 64 fd 27 3e
       0.046893578 -0.09063747 0.024865158 0.16405255
0001a0 b1 0c c7 bd 94 0b 02 be a0 11 5d 3c 43 62 d0 bc
       -0.097192176 -0.12699729 0.013492972 -0.02543748
0001b0 13 38 40 be 51 75 44 bc da 58 1b 3d 54 2d 2a 3e
       -0.1877139 -0.011990861 0.037926532 0.16618854
0001c0 04 5e 90 3d ff 8e d5 bd 52 fd 9f bd eb 04 a0 3a
       0.07049182 -0.10427665 -0.07811989 0.0012208497
0001d0 53 f1 2e be 1e d9 f3 3d dc 93 05 3d ce c3 ce 3d
       -0.17084245 0.11906646 0.032611713 0.100959405
0001e0 42 e8 9f 3c b2 ba 48 bd 7a 34 3b bc 3a b1 a7 3d
       0.019519929 -0.04900617 -0.011426086 0.081881
0001f0 ab 48 0c be b2 70 84 3c 17 dd 42 bc 45 da 2a 3d
       -0.13699596 0.016167019 -0.011893532 0.041712064
000200 e1 c9 08 be 51 87 c8 bd 49 1c 12 be f7 e1 9c bd
       -0.1335826 -0.097914346 -0.14268602 -0.07660287
000210 7c 2b 4c bd e5 47 07 be da 80 43 3d 70 fe 09 3e
       -0.049846157 -0.1321102 0.047730304 0.13475966
000220 88 72 85 bd 09 93 d1 bd df 9c 03 3d 23 37 48 3e
       -0.06515986 -0.10233123 0.032132026 0.19552283
000230 1a 19 b6 3d 04 72 af bd 22 7f a9 3d 7e 2e cd 3d
       0.088915065 -0.08566669 0.08276202 0.10018633
000240 77 b4 99 3d 94 c1 00 3e ca c7 0a 3d 5b 45 9e 3c
       0.07505124 0.12573844 0.03388194 0.01932018
000250 8e fd 0a 3e ce c0 25 3e 29 e7 d5 3d e2 80 71 3c
       0.13573286 0.1618683 0.10444481 0.014740201
000260 fc 27 92 3d 27 38 33 bd 15 1e ae 3d 77 3a b5 3d
       0.07136533 -0.043754723 0.085018314 0.08849042
000270 d3 6e 10 3c 3a 91 b3 3d 59 10 02 be 83 33 9a 3c
       0.008815485 0.08767934 -0.12701549 0.01882339
000280 27 11 02 3e 03 45 8f 3d 33 c4 29 be d6 40 d5 bd
       0.12701856 0.06995585 -0.1657875 -0.10412757
000290 4b 4d 09 3d 1e aa 41 3c 99 22 ec bd 58 c5 2e be
       0.033520978 0.011820344 -0.115300365 -0.17067468
0002a0 1f e8 94 3d 8e 0a da bd f4 9d 22 3e 3e c0 bf bd
       0.07270836 -0.106465444 0.15880567 -0.09362839
0002b0 78 83 7b 3d 2c 0c 48 bc 23 20 f1 84 ac 71 f2 84
       0.061404675 -0.012209933 -5.668834e-36 -5.6998318e-36
0002c0 fa a8 f5 84 3c 75 f5 84 60 a1 f3 84 59 5b f1 84
       -5.7754404e-36 -5.7706886e-36 -5.7277225e-36 -5.6742717e-36
0002d0 6e ef f1 84 3b 49 f3 84 6c f3 f5 04 4a 51 f5 84
       -5.687871e-36 -5.7196277e-36 5.782277e-36 -5.7673875e-36
0002e0 be bb f1 84 9a e8 f0 84 22 4c f1 84 de 71 f2 84
       -5.683124e-36 -5.663734e-36 -5.6728745e-36 -5.6998497e-36
0002f0 3a 58 f3 84 51 08 f3 84 5b b0 f1 84 ce 79 f1 84
       -5.721005e-36 -5.7136663e-36 -5.6820785e-36 -5.6770688e-36
000300 93 b1 f0 84 58 59 f4 84 51 4d f2 84 96 72 f5 84
       -5.6586805e-36 -5.7446174e-36 -5.696493e-36 -5.7704454e-36
000310 c2 86 f0 84 d4 8b f0 84 6a 6c f2 84 49 92 f1 84
       -5.6547484e-36 -5.655214e-36 -5.699349e-36 -5.679317e-36
000320 92 63 f2 84 8a c4 f5 84 85 2e f1 84 a0 df d2 3d
       -5.6985367e-36 -5.7779716e-36 -5.670155e-36 0.10296559
000330 40 18 11 3e fb 7f c1 3d de ed cd 3d 92 75 23 be
       0.14169407 0.094482385 0.10055135 -0.15962818
000340 03 38 99 3d a6 d3 48 3d ec fd 14 bd cb 56 94 bd
       0.074813865 0.04902997 -0.03637497 -0.07243117
000350 f1 8f 93 bd d1 cd ce bd 69 8a 0b be f0 f8 0e be
       -0.07205189 -0.1009785 -0.13627018 -0.1396215
000360 24 70 1a 3e b4 fa fc bd 6d 69 cc 3d 0c 03 04 bd
       0.15081841 -0.12352505 0.09981046 -0.03222947
000370 5e 44 b4 3c e8 d7 e8 3d c7 78 c7 bc cb 6a 1e be
       0.022005256 0.11369306 -0.024349583 -0.15470426
000380 1d 96 32 3e f2 d5 fc 3d 10 f6 63 bc fc 7c 68 3d
       0.17440076 0.12345494 -0.013913646 0.05675982
000390 15 ad b5 3d fe 31 e6 bd b8 73 4d 3e a5 44 2c 3e
       0.088709034 -0.11240004 0.20063674 0.16823061
0003a0 35 e3 6f 3c c5 59 e2 bb 7a a3 0d 3d bc b3 25 be
       0.014641573 -0.006907674 0.03457973 -0.16181844
0003b0 e3 a1 22 be 98 3b ad 3d f4 46 d7 3d 31 05 f1 3d
       -0.15882067 0.08458632 0.1051158 0.11768568
0003c0 02 19 10 be bb b0 c4 3d 18 b3 ff 3d e4 73 0c 3e
       -0.1407204 0.09604021 0.12485331 0.13716084
0003d0 d4 f6 be 3d 09 f1 65 bd bc 6f 37 3e 59 08 b9 3b
       0.093244225 -0.056138072 0.17913717 0.005646747
0003e0 ca 70 1b 3e cb ce 8f 3d 28 e4 84 bd 97 c0 0e 3d
       0.15179744 0.070218645 -0.0648883 0.034851637
0003f0 12 cd 37 3e 60 be 15 bb f6 c4 6c 3d 38 5c 53 3c
       0.17949322 -0.0022849068 0.057805024 0.012900405

stack.0.bias f4 [48]
000000 52 56 bb bd 47 18 92 3c 67 05 d8 3c c5 b4 d6 3d
       -0.09147324 0.017833842 0.026369764 0.10483698
000010 52 15 4b 3e a9 d1 9b bb 2e 9c f0 84 f0 1e 36 be
       0.19832352 -0.004755218 -5.6567157e-36 -0.17785239
000020 cd 4e 97 bc e2 d6 fa bd 87 04 d1 3d 8d f1 1c bd
       -0.018470192 -0.12248017 0.10205942 -0.0383163
000030 a7 e2 3a bd c9 f4 3a 3c 6b f2 f6 3d 5e ea d7 3d
       -0.04562631 0.0114109 0.12057956 0.10542749
000040 a5 f5 f4 84 fc a2 66 3d 1a 64 2d bc 4e 64 66 3e
       -5.7589713e-36 0.056307778 -0.010582948 0.224992
000050 04 09 ef 84 c2 bf ab 3c eb e5 2a be 51 6a 38 be
       -5.619691e-36 0.02096546 -0.16689269 -0.18009306
000060 3c 47 81 3e 16 e9 52 be dc 5c 0d be 5d 7a 4e bc
       0.2524966 -0.20596728 -0.13804954 -0.012602416
000070 6e b0 27 bd 74 35 f8 bc 94 6c f4 84 fb 1a a1 3d
       -0.04093974 -0.030298926 -5.7463838e-36 0.07866474
000080 a0 6d f5 84 2c 1a 66 3d 22 80 18 3e 8b 8d 36 3c
       -5.7699898e-36 0.056177303 0.14892629 0.011142145
000090 a5 29 5d be 37 e5 f1 84 d1 f6 f7 bc e6 3c 51 be
       -0.21597917 -5.686933e-36 -0.030269058 -0.20433387
0000a0 64 eb 2d bd 7c 00 94 bd 8f 1a 92 be b2 87 ed 3d
       -0.042460814 -0.07226655 -0.28535888 0.115981475
0000b0 50 0c db bd 80 fe 0f 3e a1 5d 06 3e 78 fc 1f be
       -0.10695708 0.14061928 0.13121654 -0.15623653

stack.2.weight f4 [48, 48]
000000 97 3f 9e 3d a9 29 7f bd c9 e5 87 3d da 6d ca bd
       0.077269726 -0.06229559 0.06635625 -0.09884234
000010 b7 a7 60 3c 0c a4 57 3d 14 e2 f3 84 f1 78 9c bd
       0.013711861 0.05264668 -5.7336645e-36 -0.07640255
000020 5d b3 a5 3d 66 a7 62 3d bd 5e 86 bd a0 00 17 be
       0.080908515 0.055335425 -0.06561039 -0.14746332
000030 20 21 df 3b d6 31 2c 3e f3 73 40 3e a6 b0 76 be
       0.0068093687 0.16815886 0.18794231 -0.24090824
000040 e4 d7 f1 84 5f be 09 be e9 21 16 3e 7b dc 44 3d
       -5.6857092e-36 -0.13451527 0.14661373 0.04806183
000050 86 35 f0 04 15 62 6b bd 70 7f 32 bd c5 3e ea bd
       5.6472882e-36 -0.057466585 -0.043578565 -0.114377536
000060 d2 2a 0d 3e c5 88 6b bd be 4a de 3c f8 3f 95 bc
       0.13785866 -0.05750348 0.02713525 -0.01821898
000070 41 39 a7 3d 8f bf e9 bd b5 3e f2 84 73 b2 4e be
       0.08165217 -0.1141349 -5.6951514e-36 -0.2018526
000080 39 35 f1 04 b3 ef da bd 95 57 de 3d 5d 5b 1a 3e
       5.6707705e-36 -0.1069025 0.10856549 0.15073915
000090 89 2c 8d bd d3 25 f1 04 2a 92 2a 3d 15 83 69 bc
       -0.0689326 5.6693564e-36 0.0416433 -0.014252444
0000a0 46 f3 ae bd 93 ed 52 3d e8 ec f7 bd 90 2a 0f 3e
       -0.085424945 0.0514961 -0.12105733 0.1398108
0000b0 ae dd 15 3e f1 0e 96 3d c5 ac 42 3c 77 7b 91 be
       0.14635345 0.073270686 0.011882012 -0.2841451
0000c0 b8 c8 49 3c 70 8e b0 bd d7 e8 e0 3c 15 0e bb bd
       0.0123159215 -0.08620918 0.027454777 -0.09133545
0000d0 6c 19 cf bd b3 f5 9b 3d 76 f0 f5 04 42 b6 82 bd
       -0.10112271 0.07615223 5.782005e-36 -0.06382419
0000e0 f5 38 b3 3d b5 77 06 3e 0e 49 42 be ea 4f da 3d
       0.08751098 0.13131602 -0.1897318 0.10659774
0000f0 47 a8 4a bb 9b 71 12 be 1d 2a 9e 3d fb 6b b1 3d
       -0.0030923055 -0.1430115 0.07722876 0.08663174
000100 24 f8 ef 04 bd d0 e7 3d 0c f1 52 bd ab ba 21 be
       5.641651e-36 0.113191105 -0.05149941 -0.15793864
000110 c6 3b f0 84 2f 9b 37 3c b1 95 95 bd 6d 71 3b 3c
       -5.6478622e-36 0.011206432 -0.07303942 0.011440617
000120 9f ae b3 3a b4 40 7f 3d 83 ed c5 3d b9 0f e0 3d
       0.0013708657 0.062317565 0.096644424 0.10940499
000130 9a 0c 02 be 15 68 60 3e a0 af f2 04 eb 13 b9 3c
       -0.1270012 0.21914704 5.7055213e-36 0.022592505
000140 c5 d0 f5 84 51 72 1c be 65 c7 09 be af 92 79 3d
       -5.7790948e-36 -0.15277983 -0.13454969 0.060930904
000150 2b b5 be ba eb 51 f1 84 02 71 99 bd 8c 8c 17 3e
       -0.0014549842 -5.6734057e-36 -0.07492258 0.14799708
000160 f4 7f 01 3e 25 f1 07 3d e3 b7 cf 3c dc cc 02 be
       0.12646466 0.033188958 0.025356239 -0.1277346
000170 6d 6f 84 3c f4 d4 3d 3c e0 90 34 be b5 df 9d bd
       0.016166413 0.0115864165 -0.1763339 -0.07708684
000180 5e 97 3a be 44 de b1 3d 88 8f c9 bc 9a 8b 3e bd
       -0.18221804 0.08684972 -0.024604574 -0.046519853
000190 e0 87 c5 bd 6f 55 1d 3e b8 59 f3 84 3d bd 97 bd
       -0.09645057 0.15364622 -5.721142e-36 -0.07409141
0001a0 f7 44 0e be 6d a9 c9 3d 78 b6 29 3e bd 34 1f 3c
       -0.13893496 0.098467685 0.16573513 0.009717164
0001b0 f1 fd cf bd 51 fe e0 3c 51 e7 66 bd e5 bc 16 bc
       -0.10155857 0.027465018 -0.056372944 -0.009200309
0001c0 97 5e f0 04 70 e7 4c bd cd 6a 44 3c db e9 18 be
       5.6510596e-36 -0.050025403 0.011988354 -0.14932959
0001d0 7f e1 ef 84 a4 66 ff bc 27 69 c8 3d fe 9a 98 bd
       -5.6395715e-36 -0.031176873 0.09785681 -0.074514374
0001e0 0f 17 ad bd 1d 04 b0 bd 91 66 1b 3d 15 e6 73 bd
       -0.08451664 -0.085945345 0.03793961 -0.059545595
0001f0 c8 9f a9 bd 13 61 0a be bf 54 f0 04 a1 20 6a 3d
       -0.08282429 -0.13513593 5.6501556e-36 0.057160024
000200 18 67 f1 84 4e 60 32 bd 2a 05 06 3e 50 25 de bd
       -5.6753504e-36 -0.043548875 0.13087907 -0.108469605
000210 15 35 c4 bd d2 98 f3 04 98 18 49 bd b5 ed 4f 3d
       -0.09580437 5.726937e-36 -0.04909572 0.050763804
000220 2e 5f 07 be dc 8c 50 be 3c 53 11 3e 3b 9f 32 be
       -0.13219902 -0.20366234 0.14191908 -0.17443554
000230 c3 7f ac 3d a1 f1 6d 3d 66 67 62 bd ff 44 70 bd
       0.08422806 0.058091763 -0.05527439 -0.05865955
000240 0b 1d f3 84 cc 6d f3 04 db 90 f1 84 04 8f f4 84
       -5.7155697e-36 5.7229858e-36 -5.6791856e-36 -5.7495463e-36
000250 d9 5b f4 84 0c ec f4 84 9e e2 f1 04 6b 73 f5 84
       -5.7448473e-36 -5.75809e-36 5.6866943e-36 -5.7705218e-36
000260 8c d7 f1 84 90 2c f3 84 d4 e4 f4 84 20 f7 f4 84
       -5.6856776e-36 -5.716995e-36 -5.757427e-36 -5.7591073e-36
000270 4d 42 f3 04 e1 18 f4 84 30 20 f4 84 c3 bf f2 84
       5.7189913e-36 -5.7386972e-36 -5.7393684e-36 -5.7070032e-36
000280 fa 76 f1 84 44 4d f5 84 69 fa f1 84 6c 87 f3 84
       -5.676809e-36 -5.767018e-36 -5.6888793e-36 -5.725339e-36
000290 54 da f3 04 89 70 f5 04 e7 d5 f0 84 1a 0f f1 84
       5.7329528e-36 5.770257e-36 -5.6620167e-36 -5.6672696e-36
0002a0 d2 b2 f0 04 96 1e f3 84 40 79 f5 04 48 3c f5 84
       5.658795e-36 -5.7157114e-36 5.7710574e-36 -5.7654583e-36
0002b0 4b 28 f6 84 65 28 f4 84 be 41 f3 04 d8 1d f3 04
       -5.7871325e-36 -5.740122e-36 5.71894e-36 5.7156433e-36
0002c0 59 d0 f4 84 e7 e2 f3 04 78 be f3 84 3c 68 f1 04
       -5.755546e-36 5.7337402e-36 -5.7303943e-36 5.6754552e-36
0002d0 c8 b2 f1 84 65 c7 f0 84 02 95 f0 84 7c 7c f3 84
       -5.6823012e-36 -5.6606844e-36 -5.656057e-36 -5.7243346e-36
0002e0 5a f1 f3 84 a0 d3 f2 84 c3 cf f2 04 35 90 f0 04
       -5.7350672e-36 -5.7088273e-36 5.7084726e-36 5.6556162e-36
0002f0 02 6c f1 84 3b a9 f2 84 57 33 f2 84 20 66 f2 84
       -5.6758017e-36 -5.704934e-36 -5.6941075e-36 -5.6987714e-36
000300 1f 0e 3d 3e b0 b6 b5 3c 53 6d 94 bd e5 f8 2b 3d
       0.18462418 0.022181839 -0.072474144 0.04198541
000310 0f 54 39 be 14 ab 6c 3c 40 06 f3 04 dc 73 7e bd
       -0.18098472 0.014445085 5.7134765e-36 -0.06212221
000320 40 38 ef 3d c3 81 cf 3d bd 42 ca bd 9f 01 95 3d
       0.11680651 0.10132172 -0.098760106 0.072757
000330 ca 34 7b 3d 68 23 e9 3d c8 78 08 be 76 37 81 3d
       0.06132964 0.11383706 -0.13327324 0.063094065
000340 92 27 f5 84 09 55 c5 bd 6f bf e1 3d 54 eb 0f 3e
       -5.7635563e-36 -0.0963536 0.11022841 0.14054614
000350 f6 ca ef 84 a0 00 bf 3a 66 44 da 3c 9c ac d2 bd
       -5.637502e-36 0.001457233 0.026643943 -0.10286829
000360 06 0e 18 be f4 eb 2b 3c ea db 7c bd 79 62 cb 3d
       -0.148491 0.010493267 -0.061733164 0.099308915
000370 e2 d8 31 be 98 02 37 3e 63 a1 f3 84 03 cb e6 3a
       -0.1736789 0.17872083 -5.7277236e-36 0.001760811
000380 54 0a f5 84 a1 45 a6 3b b6 6b 74 3c 43 60 49 3e
       -5.7608708e-36 0.0050742184 0.014918258 0.19665627
000390 60 c9 f6 bc 67 7b f1 84 d1 d2 24 be b1 22 83 3d
       -0.03012532 -5.6772155e-36 -0.16096045 0.06403101
0003a0 f1 e2 6f bc 6c d9 86 bd 94 4c 2d be 32 f4 80 3d
       -0.014641509 -0.06584439 -0.16923743 0.062965766
0003b0 4f 0b 75 bd 9b 56 85 bd 01 da 67 bd 5d 39 50 bd
       -0.059825238 -0.06510659 -0.05660439 -0.050835956
0003c0 29 1f 03 3c d5 d2 0d 3d 31 6e 17 3d 04 99 80 3d
       0.008003035 0.034624893 0.03697032 0.062791854
0003d0 eb 95 f3 3d 6a a7 c3 bc 94 f4 f2 84 3e 43 a9 bd
       0.11893829 -0.02388354 -5.7118536e-36 -0.082647786
0003e0 86 98 84 bd d4 85 af 3d 3a 51 99 3d db 02 0e be
       -0.06474404 0.085704476 0.07486196 -0.13868277
0003f0 f7 97 b4 bc 69 5a 14 3e 56 15 0c 3d ac e9 0f bd
       -0.022045119 0.14487614 0.034200035 -0.035134956

stack.2.bias f4 [48]
000000 c7 00 8c 3d f5 ca 41 bd 73 f9 cd 3b 4e d0 f1 84
       0.06836086 -0.047312696 0.00628584 -5.6850125e-36
000010 21 dc d9 bd 3c 67 3a 3e 21 41 f6 bc 37 d3 e0 3d
       -0.106376894 0.18203443 -0.030060353 0.10977786
000020 6d 76 b8 3d 60 c9 0e 3d 0f dc ef 04 72 25 f2 84
       0.09006963 0.034860015 5.6390722e-36 -5.6928315e-36
000030 79 13 2b 3c 02 35 5a 3d 17 d2 9b 3d fe e9 63 be
       0.010441654 0.05327321 0.07608431 -0.2225723
000040 f1 0a 9c bd 91 70 f5 04 af 32 7b be 00 8a 2f 3e
       -0.076192744 5.77026e-36 -0.24531053 0.17142487
000050 d8 f4 1b bd 41 dc f4 3c 81 57 f1 bd 70 fd a5 bc
       -0.038075298 0.029890181 -0.11784268 -0.02026245
000060 75 3a 16 3d 20 b6 41 3e fb 9e 65 3d ee ca f9 3d
       0.036676843 0.18917131 0.05605982 0.12196909
000070 4f 2f 04 3e 1c 1d 9a bd 2b d2 80 bb 1a 65 22 3c
       0.12908672 -0.075250834 -0.003931304 0.0099118
000080 0d b8 e1 3d 79 1d 1d be 41 5f 39 3d 5c 39 7d 3e
       0.11021433 -0.15343274 0.045256857 0.24728912
000090 8d b1 7f 3e 8c b7 50 3e 11 65 f2 84 3d a0 f3 84
       0.24970074 0.20382518 -5.698674e-36 -5.727618e-36
0000a0 80 b5 ee 84 a4 51 6e 3d d3 d3 ab bd 85 da 0c 3d
       -5.6120213e-36 0.058183327 -0.08390012 0.034388084
0000b0 90 7a 67 bd ab b5 20 be d8 98 f4 84 b5 d7 f2 84
       -0.05651337 -0.15694301 -5.750449e-36 -5.7092022e-36

stack.4.weight f4 [32, 48]
000000 a8 51 2b 3c 80 40 e6 bd 64 a4 80 bc f5 df f5 84
       0.01045648 -0.11242771 -0.015703388 -5.7804895e-36
000010 a9 b8 93 be 83 b1 01 be 2b 57 4d bd 90 dc 23 3c
       -0.28851822 -0.12665372 -0.050131958 0.010001317
000020 c3 db 0b 3e 87 bc 2b be bc 5d f1 84 ff e3 f3 04
       0.13658051 -0.16771136 -5.674491e-36 5.7338407e-36
000030 06 9a f2 bc 97 37 07 3c 38 9d f0 3d 56 b2 58 3c
       -0.02961446 0.008253 0.11748737 0.013226112
000040 2f b5 84 bc 73 a0 f1 04 b7 6d 7b bc 86 6a 74 bc
       -0.016199676 5.6806177e-36 -0.015345982 -0.014917975
000050 50 bd b9 3c d8 d1 9b 3d c0 91 ab bc 91 73 09 3d
       0.022673279 0.07608384 -0.020943522 0.03355748
000060 78 e3 d1 3d 28 46 2e 3d db 32 56 3c 6f 83 41 3e
       0.10248464 0.042547375 0.013073648 0.18897794
000070 df 28 86 3c 64 5e 42 3c 4e 83 b1 3d 54 61 b4 bd
       0.01637691 0.011863325 0.086676225 -0.08807626
000080 31 3f d2 3d d9 f1 71 be 18 84 97 3d 0b 01 23 3e
       0.10265959 -0.23627414 0.07398242 0.15918367
000090 91 d3 9e bd 9e a1 35 bd 7a 39 f4 84 07 13 f2 84
       -0.07755197 -0.044343583 -5.741691e-36 -5.69114e-36
0000a0 e0 0c f4 84 03 26 80 3e db 3a 22 3e c4 66 ce 3d
       -5.7375948e-36 0.25029 0.15842764 0.10078195
0000b0 82 72 21 3e df 31 1c 3d bc 7d f1 04 a6 86 ef 84
       0.15766338 0.0381335 5.6774296e-36 -5.6312285e-36
0000c0 a5 f1 f3 84 50 f3 f0 84 7c 70 f0 84 5c a0 f4 04
       -5.735094e-36 -5.6647176e-36 -5.652703e-36 5.751139e-36
0000d0 89 14 f3 84 de d9 ee 84 df 6b f0 84 66 2a f2 84
       -5.7147884e-36 -5.615361e-36 -5.6522793e-36 -5.6932863e-36
0000e0 1f e1 f4 84 ee c3 f2 04 b7 eb f1 04 41 c2 f2 84
       -5.7570865e-36 5.707386e-36 5.6875298e-36 -5.707232e-36
0000f0 1f 66 f3 84 3d 0f f2 84 4d 48 f1 84 08 c6 ef 84
       -5.722281e-36 -5.690792e-36 -5.6725225e-36 -5.6370493e-36
000100 f8 ca f1 84 31 b8 f1 84 ec da f0 84 b9 57 f2 84
       -5.6845225e-36 -5.682798e-36 -5.6624777e-36 -5.6974487e-36
000110 dc fb ef 84 5d 8a f0 84 a5 36 f2 84 52 3d ef 84
       -5.6419926e-36 -5.6550795e-36 -5.694411e-36 -5.6244944e-36
000120 05 4f f1 84 eb b5 f0 84 8e 8b f1 84 95 a7 f2 84
       -5.6731396e-36 -5.6590794e-36 -5.678699e-36 -5.7047826e-36
000130 cc 8b f5 84 81 cc f1 84 b5 86 f1 84 fd 9b f0 84
       -5.7727606e-36 -5.6846635e-36 -5.6782537e-36 -5.656698e-36
000140 4d 2f f2 84 dc c6 f3 84 3e b7 f1 84 13 ae f0 84
       -5.6937365e-36 -5.731165e-36 -5.682711e-36 -5.658359e-36
000150 e1 00 f0 84 cf bb f1 84 26 2d f3 84 57 f0 f4 84
       -5.6424536e-36 -5.6831303e-36 -5.7170488e-36 -5.758484e-36
000160 46 9e f5 84 f0 7e f1 84 82 20 ef 84 b1 b1 f2 84
       -5.7744574e-36 -5.67754e-36 -5.6218484e-36 -5.705711e-36
000170 cc 3c f3 04 64 b9 f1 84 da 6c f3 04 2c d3 f2 84
       5.718486e-36 -5.6829082e-36 5.722899e-36 -5.7087857e-36
000180 be 93 3f 3e cd 34 8a 3d 69 cc 56 3d 71 1a f4 84
       0.18708703 0.06748352 0.052441034 -5.7388407e-36
000190 59 8e b7 be e3 d1 3b bd a7 84 0c 3d 74 00 ab 3c
       -0.3585079 -0.04585446 0.034306195 0.02087424
0001a0 2d cf 43 3e b2 ad 9f bd 29 e9 ef 04 4c 42 f3 04
       0.19122 -0.077968016 5.6402754e-36 5.718991e-36
0001b0 36 c1 c0 3b 2f 54 10 3e 18 80 c4 3d e0 cf a6 bd
       0.0058824075 0.14094613 0.095947444 -0.08145118
0001c0 40 1b 1c 3e 89 68 ef 04 23 40 d8 3d bc ba c5 3d
       0.1524477 5.628463e-36 0.10559108 0.096547574
0001d0 df 7e 11 bd 20 a3 2a bc 13 6f 40 bd 87 2b 80 38
       -0.035521384 -0.010414869 -0.04698093 6.111623e-05
0001e0 0a 4c b3 3d 32 52 03 3e 40 f2 27 be 1f 0a 26 3e
       0.08754738 0.12824324 -0.16401005 0.16214798
0001f0 5c a7 0d 3e 6e 64 9c bd 22 4d 81 3d df 4c 7e 3d
       0.13833374 -0.07636343 0.0631354 0.06208503
000200 c9 d7 64 3d 75 89 6c be 19 c3 8e bd a7 27 f1 3d
       0.05586985 -0.2309931 -0.06970806 0.11775141
000210 0d 41 dc 3d b7 b4 ad bd cf 0b ef 84 7a c5 f0 84
       0.10754595 -0.08481734 -5.6199474e-36 -5.6605082e-36
000220 10 78 ee 84 57 67 a7 3d 83 bb 40 3d 6e 16 ce bd
       -5.606379e-36 0.081740074 0.047053825 -0.10062872
000230 3c ad a1 bd c7 4d bd bd d4 30 f1 84 6a 18 f3 84
       -0.0789437 -0.092433505 -5.670367e-36 -5.7151446e-36
000240 40 c3 bc 3d c6 ee 66 bc ac 04 e7 3d f3 27 f2 84
       0.092169285 -0.014095014 0.11280188 -5.6930614e-36
000250 26 ee 1f be 95 db d9 3d 3f 8c 09 be b7 c9 44 3d
       -0.1561819 0.10637585 -0.13432406 0.048043933
000260 74 48 23 3e 07 9c ca 3b 22 33 f5 04 e9 d9 f0 84
       0.15945607 0.0061831507 5.764618e-36 -5.6623848e-36
000270 62 a4 24 3d 96 e5 10 3e 2e fb be 3d f9 36 e6 bc
       0.04019583 0.1415008 0.093252525 -0.028102385
000280 80 7f f6 3d c8 57 f3 04 36 7f 99 3d 03 aa 83 3d
       0.120360374 5.720964e-36 0.07494967 0.064289115
000290 80 ab 09 3e 70 eb 23 3e 1a 9f 9c 3d 32 a9 a6 3d
       0.13444328 0.16007781 0.07647534 0.0813774
0002a0 90 03 e1 3c 90 cc b2 3d 3d 69 72 be 1c d6 66 3d
       0.027467519 0.087304235 -0.23672958 0.056356534
0002b0 fd 67 b5 bd 3f 2b f3 3c 69 d0 df 3d 62 8a ed 3d
       -0.08857725 0.029683707 0.10928423 0.1159866
0002c0 aa fa 4a 3e 08 eb ab bd 12 64 ca 3d d5 19 cb 3d
       0.19822183 -0.08394438 0.09882368 0.099170364
0002d0 5f a9 de 3d 3e 0d b9 bd d5 79 f1 84 3d 01 f1 84
       0.10872149 -0.09035729 -5.6770713e-36 -5.6659965e-36
0002e0 5e 9d f0 84 24 c2 c1 3d 42 64 bb 3d 52 a6 af 3d
       -5.6568248e-36 0.094608575 0.09149982 0.08576645
0002f0 bc 50 89 bb 26 90 e7 bd b8 17 f3 04 cb df f3 84
       -0.0041905325 -0.11306791 5.7150808e-36 -5.7334547e-36
000300 2e 3d 8d 92 f3 2c f4 84 f2 50 f5 84 5c ee f4 04
       -8.913433e-28 -5.7405404e-36 -5.767356e-36 5.7583023e-36
000310 44 82 f5 04 27 f4 f3 04 17 c9 9b 96 d2 e2 f0 84
       5.7718853e-36 5.7353244e-36 -2.5168506e-25 -5.663203e-36
000320 70 8e b0 97 c5 b8 91 87 c8 46 f3 84 ee 57 f2 04
       -1.140969e-24 -2.1925773e-34 -5.7194028e-36 5.6974677e-36
000330 7f fd f4 84 50 38 ef 99 a9 07 2e 95 1f c7 5a 95
       -5.7596924e-36 -2.4734765e-23 -3.5145063e-26 -4.4181828e-26
000340 22 b5 57 96 e7 26 f3 84 79 88 02 97 4b 6a a6 94
       -1.7424717e-25 -5.716475e-36 -4.217752e-25 -1.6803642e-26
000350 23 70 f1 84 b1 6a d2 90 1c a7 e0 96 e7 5d 68 95
       -5.676181e-36 -8.299478e-29 -3.6294613e-25 -4.6926103e-26
000360 8f 92 12 97 40 56 f3 84 c6 ae f5 04 67 d0 f0 84
       -4.7360127e-25 -5.7208234e-36 5.7759727e-36 -5.6615116e-36
000370 70 7a f0 04 c3 be 30 96 f9 13 b8 86 17 20 21 88
       5.653617e-36 -1.427736e-25 -6.9242455e-35 -4.8486897e-34
000380 85 2d f4 84 ab 90 f5 84 8e 8b f5 84 e4 73 f4 84
       -5.7405927e-36 -5.773208e-36 -5.7727384e-36 -5.7470553e-36
000390 c9 7b f2 04 d3 8e 00 93 7e c7 f2 84 3b 78 f3 04
       5.7007605e-36 -1.622629e-27 -5.707713e-36 5.723944e-36
0003a0 87 77 f4 84 47 8c f0 04 7a ee f3 84 db 8b 01 97
       -5.7473893e-36 5.6552553e-36 -5.734803e-36 -4.185867e-25
0003b0 9d f7 f0 04 ca 8d e4 87 8f ba f3 04 d8 52 f5 84
       5.6651126e-36 -3.4388963e-34 5.7300352e-36 -5.7675303e-36
0003c0 35 4a a2 be 44 f5 fe 3d 03 db 14 bd b4 89 f4 84
       -0.3169724 0.124491245 -0.03634168 -5.7490585e-36
0003d0 ce ca 3a 3d d8 1c 7c bd 99 6f 6f bd 10 f5 8e bc
       0.045603566 -0.061550945 -0.058456037 -0.01745084
0003e0 4e 62 0d be cc ef e2 3c 2f a4 f0 84 ee 98 f2 84
       -0.13807032 0.027702235 -5.6574508e-36 -5.703437e-36
0003f0 55 bc bb bc 2c b3 ea 3d dd 05 79 3d 54 d1 de 3b
       -0.022916952 0.114599556 0.060796607 0.006799856

stack.4.bias f4 [32]
000000 f4 f9 e8 3d d4 33 ef 84 30 bd f8 3d 91 77 76 3d
       0.113758 -5.6236227e-36 0.1214546 0.06017262
000010 ac d1 f5 84 7a 94 5c 3d ee 83 52 3e 83 21 f5 84
       -5.7791776e-36 0.053852536 0.2055814 -5.763e-36
000020 72 a4 e8 3d 74 30 63 bc 9f 83 57 3d 95 33 0e 3e
       0.113594905 -0.013866533 0.052615758 0.13886864
000030 54 4a f4 84 a9 19 93 bd 69 64 20 3e fe 85 f4 84
       -5.7432384e-36 -0.07182629 0.15663303 -5.7487177e-36
000040 7b 81 e2 bc 8b 49 4f bd ea 0d 47 bd bb d3 59 bb
       -0.027649632 -0.050607245 -0.048597254 -0.0033237773
000050 69 66 a6 bd 60 bf f9 3d 9a 03 e2 3d 87 b6 3f be
       -0.08125002 0.12194705 0.11035843 -0.18721972
000060 3e e9 a2 3b 89 90 f4 84 07 41 f2 84 10 b9 ef 84
       0.0049716523 -5.749686e-36 -5.6953645e-36 -5.6358583e-36
000070 f1 73 49 3c b4 ef f5 84 61 06 07 be 46 f0 f3 04
       0.012295709 -5.7819356e-36 -0.13186027 5.734968e-36

stack.6.weight f4 [32, 32]
000000 60 d5 ea bd 96 8b f1 84 76 1f e4 bd 6d 29 1a 3d
       -0.11466479 -5.6787017e-36 -0.11138813 0.037637163
000010 37 9f 83 21 d3 cc 0e bd e7 07 2a 3e ca 21 f0 04
       8.919049e-19 -0.034863304 0.16604577 5.645476e-36
000020 89 13 07 bf df 7b cb 3e 9e f3 31 be a4 32 49 bd
       -0.52764183 0.39742944 -0.17378089 -0.04912056
000030 67 09 f2 84 35 76 e3 3d 9c 92 8d bd 7b 68 f4 84
       -5.690256e-36 0.111065306 -0.06912729 -5.7460074e-36
000040 19 69 2a be b0 c4 f1 be d6 1b 90 be 48 d0 e8 be
       -0.16641654 -0.47220373 -0.28146237 -0.45471406
000050 89 f2 31 3e b0 a2 f2 bc 14 78 ce bd 75 37 1e 3c
       0.17377676 -0.029618591 -0.10081497 0.009656777
000060 33 5c e2 3d d8 72 f3 04 79 ec f0 84 a2 24 f1 04
       0.11052742 5.7234493e-36 -5.6640895e-36 5.669247e-36
000070 40 b2 89 3d 24 a1 f4 84 ef 50 2a 3e 18 52 f3 04
       0.067234516 -5.751211e-36 0.16632436 5.7204417e-36
000080 82 24 04 be 17 c1 f2 84 c5 af d0 bd 1e a0 1b 3e
       -0.12904552 -5.707125e-36 -0.101897754 0.15197799
000090 a5 c3 f5 84 c3 88 36 bd 03 3a a1 3d 5c dc f3 84
       -5.7778894e-36 -0.04456402 0.07872393 -5.7331394e-36
0000a0 d4 12 0b 3d 09 b6 1b 3a f3 a7 bd bb e3 b8 55 be
       0.033953503 0.0005939906 -0.0057878434 -0.2087131
0000b0 df b2 f4 04 3c 4c 19 bb 29 59 b7 3d af 9e f2 04
       5.752839e-36 -0.0023391386 0.08952553 5.7039654e-36
0000c0 66 2b 49 bd b4 0e 7c 3d b7 fd 1b 3e 74 50 8d 3d
       -0.049113654 0.06153746 0.15233503 0.06900111
0000d0 7b 53 29 bc de bd 0c 3e 39 41 94 3e 08 d0 b8 3d
       -0.010334845 0.13744304 0.2895601 0.09024054
0000e0 7e f3 d0 bc 03 8a f0 04 15 a3 f3 04 0e 29 f2 84
       -0.025506731 5.6550473e-36 5.7278793e-36 -5.693163e-36
0000f0 0e 83 5a bd 80 60 f2 84 6e c1 68 be 7e 75 f1 84
       -0.05334764 -5.6982548e-36 -0.22730038 -5.6766727e-36
000100 31 ae c7 bc e0 0e f1 04 e2 55 b3 bc 01 00 68 3d
       -0.024375053 5.667249e-36 -0.021891538 0.05664063
000110 ac b3 f5 04 78 1a 6c bd ed 79 f5 bb db 4b f5 84
       5.7764226e-36 -0.05764243 -0.0074913413 -5.7668885e-36
000120 46 84 97 bd 8e 48 a3 3d 59 28 db bd 17 82 d2 bb
       -0.07398276 0.07972823 -0.10701055 -0.0064241993
000130 b7 c5 f3 84 26 e0 ba bc ed 06 a9 3b ce 2a f1 04
       -5.7310598e-36 -0.02281196 0.0051582963 5.6698138e-36
000140 32 08 ed bc 07 ad bd bd 43 ca e1 bd 45 cf c6 bc
       -0.028934572 -0.09261518 -0.110249065 -0.024268756
000150 f7 f5 6c 3c 51 6e 4a bd 0c d2 12 bd 59 b8 3f 3d
       0.014462939 -0.049421612 -0.035844848 0.046806667
000160 48 1a 1e bb 17 0c f1 04 e5 92 f1 84 b8 0d f2 04
       -0.0024124552 5.666993e-36 -5.679373e-36 5.6906525e-36
000170 5f 7c 04 bd 8c b8 f2 84 6d ce 14 3e 9c e0 f2 84
       -0.032345172 -5.7063406e-36 0.1453187 -5.7100198e-36
000180 4c 60 f4 04 ee 2c f4 84 63 ac f3 84 cd 91 f5 84
       5.745256e-36 -5.7405386e-36 -5.7287338e-36 -5.773312e-36
000190 33 43 f5 04 9f 2a f1 84 54 83 f3 84 03 08 f2 84
       5.7660936e-36 -5.669797e-36 -5.724963e-36 -5.6901284e-36
0001a0 01 e7 f2 04 94 b3 f5 84 e0 5f f5 84 92 b1 f5 84
       5.710607e-36 -5.776414e-36 -5.768727e-36 -5.7762296e-36
0001b0 36 c7 f0 04 38 eb f0 84 fa 46 f3 84 70 2e f2 04
       5.6606675e-36 -5.6639743e-36 -5.7194207e-36 5.6936573e-36
0001c0 da 32 f5 84 7a 2f f5 84 d5 e3 f5 84 8c d2 f2 84
       -5.7645923e-36 -5.7642824e-36 -5.7808454e-36 -5.7087283e-36
0001d0 9e f4 f3 04 51 bd f5 84 04 f6 f2 84 54 24 f3 84
       5.735367e-36 -5.7773083e-36 -5.7119856e-36 -5.7162388e-36
0001e0 ae 4f f1 84 14 da f4 04 54 2e f1 84 f2 3b f2 04
       -5.6732002e-36 5.7564397e-36 -5.6701373e-36 5.6948978e-36
0001f0 ff b6 f3 84 c2 81 f4 84 8f d9 f0 84 fa 07 f1 84
       -5.729708e-36 -5.7483288e-36 -5.6623525e-36 -5.6666153e-36
000200 9b b4 f0 04 a4 e6 f0 04 dc ba f2 84 5f 44 f5 84
       5.658959e-36 5.663554e-36 -5.706553e-36 -5.7662012e-36
000210 10 95 f1 84 4b bf f3 04 a9 65 f0 84 eb 26 f0 04
       -5.679572e-36 5.73047e-36 -5.651709e-36 5.645947e-36
000220 b2 73 f3 84 dc 2e f1 84 a1 be f4 04 2b 4f f5 84
       -5.7235275e-36 -5.670186e-36 5.753919e-36 -5.7671927e-36
000230 2d 9d f2 04 59 88 f2 84 ba a0 f3 04 55 40 f3 84
       5.703827e-36 -5.7019142e-36 5.727663e-36 -5.7188105e-36
000240 74 5b f2 84 fb 2d f2 84 c5 46 f2 04 35 08 f2 04
       -5.6977913e-36 -5.6936153e-36 5.6958918e-36 5.6901464e-36
000250 c4 11 f1 84 73 c8 f3 04 f6 11 f4 84 2d b8 f4 04
       -5.6675143e-36 5.731311e-36 -5.738062e-36 5.7533263e-36
000260 59 9a f4 84 c7 3f f5 04 59 d6 f3 04 47 a6 f1 84
       -5.750587e-36 5.7657793e-36 5.7325873e-36 -5.681153e-36
000270 c1 c8 f3 84 95 8b ef 84 60 2b f2 84 eb d2 f1 04
       -5.731339e-36 -5.6316816e-36 -5.693376e-36 5.6852525e-36
000280 e3 5b 1a 3e 43 c0 f1 84 bf 0a 0e 3e 7e 97 cb 3d
       0.15074115 -5.6835392e-36 0.13871287 0.09941004
000290 7f e6 8c 1b 10 d5 30 bd 3e ba e9 3c b5 26 f0 84
       2.3310012e-22 -0.043171942 0.02853119 -5.6459276e-36
0002a0 6a 17 ea be 40 ee 03 3e ef e7 a5 3b a4 ec 0f bd
       -0.4572099 0.12883854 0.005063049 -0.035137787
0002b0 24 d3 f1 84 ed 60 15 3e b6 ad a1 bc ca b1 f1 84
       -5.685273e-36 0.14587756 -0.019736152 -5.68221e-36
0002c0 4b 2b 18 be 5c 0b a1 be b9 82 9b be ee e0 a9 3c
       -0.14860265 -0.3145398 -0.3037317 0.020737138
0002d0 ae ea 01 be a5 e3 96 be a3 d8 c0 be 9e a4 18 3e
       -0.1268718 -0.29470554 -0.3766528 0.14906546
0002e0 6a ee d9 3d ff 4c f2 04 bb 27 f3 84 c9 e2 f2 04
       0.10641177 5.6964636e-36 -5.7165512e-36 5.7102196e-36
0002f0 f6 cf e7 3b a2 9f f0 84 97 70 c9 3e 14 81 f4 84
       0.0070743514 -5.657033e-36 0.39343712 -5.7482664e-36
000300 2c 25 f3 84 ae d4 f0 84 22 e4 ef 84 b4 0f f2 84
       -5.7163162e-36 -5.6619044e-36 -5.6398137e-36 -5.6908348e-36
000310 8b 9b f2 04 ad 66 f0 84 f2 13 f5 84 8d 74 f0 04
       5.703677e-36 -5.651802e-36 -5.761754e-36 5.6530764e-36
000320 12 50 f3 04 a1 a0 f3 84 4e 67 f0 84 85 6c f2 84
       5.720256e-36 -5.727654e-36 -5.65186e-36 -5.6993586e-36
000330 db 36 f0 04 83 f3 ef 84 bc 28 f4 84 77 3c f5 04
       5.6474106e-36 -5.641226e-36 -5.7401533e-36 5.765475e-36
000340 d3 fe f4 84 95 d6 f0 04 4f 1d f2 84 70 f2 f1 04
       -5.7598143e-36 5.662079e-36 -5.6920842e-36 5.688147e-36
000350 d8 58 f1 84 0f f6 f2 04 d6 ab ef 84 d1 47 f4 84
       -5.6740418e-36 5.7119896e-36 -5.6346436e-36 -5.7430077e-36
000360 10 64 f0 04 93 f7 f0 84 b0 b9 f0 84 6e 88 f2 04
       5.651562e-36 -5.665109e-36 -5.6594256e-36 5.7019217e-36
000370 da 3b f1 84 a7 ff f1 84 58 1c f1 84 e2 76 f1 84
       -5.6713793e-36 -5.6893607e-36 -5.6684857e-36 -5.6768004e-36
000380 90 1a 10 9b a8 f2 f4 84 ed 70 d0 9b f2 e7 83 ab
       -1.1919984e-22 -5.758697e-36 -3.448369e-22 -9.372488e-13
000390 7d 82 f4 84 31 04 5d 9c 62 0f 49 a2 45 1a f2 04
       -5.748396e-36 -7.3128183e-22 -2.7248723e-18 5.691805e-36
0003a0 ee 3e ef 84 7e 90 f2 04 29 8b fe 85 88 47 db a1
       -5.624642e-36 5.702662e-36 -2.3937165e-35 -1.4858951e-18
0003b0 26 f4 ee 04 f6 be 51 a2 2c 48 f2 84 73 e7 f0 84
       5.6177746e-36 -2.8425876e-18 -5.6960206e-36 -5.663628e-36
0003c0 c8 00 f0 9e 8e 11 1f 86 5c 4c f4 84 e0 ce 15 8b
       -2.5411312e-20 -2.9917473e-35 -5.743425e-36 -2.8851992e-32
0003d0 4c b0 7f a5 6f fb f1 84 ad 24 f3 04 91 90 2a 9b
       -2.2177456e-16 -5.6889733e-36 5.7162707e-36 -1.4108782e-22
0003e0 41 30 f3 84 db 77 f0 04 d3 28 f1 04 fe 2f f2 84
       -5.717334e-36 5.65338e-36 5.669632e-36 -5.6938e-36
0003f0 cf bd 32 a3 80 93 f4 84 a0 ab f3 04 dd fb f4 84
       -9.689593e-18 -5.749958e-36 5.7286638e-36 -5.7595424e-36

stack.6.bias f4 [32]
000000 e2 b0 1a be 85 a3 f6 3c 69 70 ab 39 ca 89 f2 84
       -0.15106538 0.030107269 0.00032699414 -5.7020466e-36
000010 85 4e f5 84 eb 5d 95 bd a6 55 f0 84 72 af 91 9d
       -5.7671332e-36 -0.07293304 -5.6502385e-36 -3.8562587e-21
000020 63 73 51 3e c8 b6 c1 3d 23 52 f1 84 e8 40 09 3e
       0.20454173 0.09458691 -5.673426e-36 0.13403666
000030 59 ec 67 bd db 29 0b bd c3 16 73 3d cd 4f 8c bc
       -0.056621883 -0.033975463 0.05934788 -0.017127896
000040 20 2c 52 be 3c 3d 55 3e 85 f4 ee 3d 4c c6 9e bc
       -0.20524645 0.2082414 0.11667732 -0.019381665
000050 b9 96 ed 3d 78 eb 26 3e 87 89 6c 3e 9f 7a f1 84
       0.11601014 0.16300762 0.23099338 -5.6771437e-36
000060 24 4d be bc 49 4f 8f 3c 60 55 42 3e d7 7e 92 3c
       -0.023230143 0.01749386 0.1897788 0.017882748
000070 a0 2e 86 3d 72 9a 69 bd c4 fa 9d 3d 55 41 94 3e
       0.06551862 -0.057032056 0.07713845 0.28956094

stack.8.weight f4 [1, 32]
000000 bb 06 ae be 69 cf 8f be 4a be 07 3e 25 e1 f3 04
       -0.3398951 -0.2808793 0.13256183 5.7335788e-36
000010 50 e3 f1 04 a3 fd 28 be aa 56 f4 84 dd 20 97 91
       5.686758e-36 -0.16503005 -5.7443713e-36 -2.3843853e-28
000020 a7 4f bf 3e d6 df 17 be e2 52 f4 84 03 d2 cb 3e
       0.37365457 -0.1483148 -5.744024e-36 0.39808664
000030 ab 8a 97 be b0 aa 91 3c 41 49 51 3e 7f ce 00 be
       -0.29597983 0.017781585 0.204381 -0.12578772
000040 1c c7 64 be 07 8f f3 3d 1b a8 fe 3e ac 44 0f 3e
       -0.22341579 0.11892515 0.4973763 0.1399104
000050 ec 1a 5a 3e 98 90 b7 3d aa 98 64 3e 60 98 f2 84
       0.21299332 0.08963126 0.22323862 -5.703386e-36
000060 5a 63 c3 bd ed bb c3 3d e4 6a 2e 3e d5 a3 14 3e
       -0.09540434 0.095573284 0.17032963 0.14515622
000070 f9 a6 81 bd 94 d6 9a be 02 7c 98 3d b3 4e 78 3e
       -0.06330676 -0.30241835 0.074455276 0.24248771
