checkpoints/best_neural_classifier.pt (torch, 40245 bytes, 9 tensors)

stack.0.weight f4 [64, 29]
0	0xbe395aa9	-0.1810099
1	0x3d90fb12	0.07079138
2	0x3c557408	0.013028152
3	0xbd99e449	-0.07514245
4	0x3aace7fc	0.0013191695
5	0x3e5aa01f	0.21350144
6	0xbd86cdf4	-0.06582251
7	0x3e032782	0.1280804
8	0xbe02ce93	-0.12774114
9	0xbdea76a7	-0.114484124
10	0x3d8832c6	0.06650309
11	0xbda32fa4	-0.07968071
12	0x3e0b7f48	0.13622773
13	0xbd5ab675	-0.05339666
14	0x3dc9206b	0.09820636
15	0x3dce6192	0.10077204
16	0x3e3c9b81	0.18418695
17	0x3e4f3118	0.20233572
18	0x3e4fc2b6	0.2028912
19	0x3e405912	0.18783978
20	0x3dd3b3cb	0.10337027
21	0x3d55594e	0.05208712
22	0xbd978ac4	-0.07399514
23	0xbc3936f6	-0.011304608
24	0x3a1f2577	0.00060709513
25	0x3e4db36f	0.2008798
26	0x3d1192ea	0.0355405
27	0x3ca75bfc	0.020429604
28	0xbdc3d268	-0.09561616
29	0xbe3a80ff	-0.1821327
30	0xbe07ea59	-0.1327299
31	0xbdaeb142	-0.08529903
32	0x3d2396ee	0.03993886
33	0x3d5f3a91	0.054499213
34	0xbe0fbda3	-0.14037184
35	0x3d8dd9ad	0.06926284
36	0x3d122527	0.035679962
37	0x3dbe0c06	0.09279637
38	0x3e4ccc4f	0.19999813
39	0xbd2c5504	-0.042073265
40	0x3c081ce6	0.008307671
41	0x3e47e826	0.19522151
42	0x3cd21376	0.025644045
43	0x3e5d82bb	0.21631901
44	0xbce369b0	-0.027760357
45	0x3da60ada	0.081075385
46	0x3e264265	0.16236265
47	0x3e1c1815	0.15243562
48	0x3e3f68dd	0.18692346
49	0x3d9f9f44	0.077940494
50	0x3db837e5	0.08995036
51	0xbda64ba4	-0.08119896
52	0x3d7f05fa	0.06226156
53	0xbd3e8fc3	-0.04652382
54	0x3daa8293	0.08325686
55	0x3e27b998	0.16379392
56	0x3d5c2e7e	0.053755276
57	0xbde86d8d	-0.1134902
58	0xba9f14b1	-0.0012136904
59	0xba748934	-0.0009328306
60	0xba8622e4	-0.0010233787
61	0xba6453af	-0.00087099796
62	0xba5e6e21	-0.00084850384
63	0xba25d97f	-0.000632666
64	0x385dc185	5.2870735e-05
65	0x374cf8ee	1.2217306e-05
66	0x3a995c16	0.0011700417
67	0xba1c36ce	-0.0005959094
68	0xba74321a	-0.0009315327
69	0xba4ecc26	-0.0007888697
70	0xba68e5d8	-0.0008884347
71	0xba3a9b1a	-0.0007118449
72	0xba65c0f7	-0.0008764411
73	0xba905611	-0.0011011978
74	0xba7b9f91	-0.00095986674
75	0xba7b6d18	-0.00095911464
76	0xba26d854	-0.0006364633
77	0xba067e8a	-0.000513055
78	0xb96a8200	-0.00022364408
79	0x3a9b1488	0.001183168
80	0xba6139c4	-0.00085916766
81	0xba85877d	-0.0010187473
82	0xba67fb50	-0.0008849399
83	0xba79a13b	-0.00095226214
84	0xba541da6	-0.0008091576
85	0xba81db4e	-0.0009907277
86	0xba9b3ffa	-0.0011844628
87	0x0255985d	1.5692495e-37
88	0x829b5adc	-2.2827354e-37
89	0x82966068	-2.2095854e-37
90	0x828e12ba	-2.0875773e-37
91	0x03030039	3.8497696e-37
92	0x822b8226	-1.2600447e-37
93	0x01d7693a	7.912952e-38
94	0x02826a52	1.9162808e-37
95	0x0246a623	1.4594421e-37
96	0x81027114	-2.3958359e-38
97	0x827d65ed	-1.8616756e-37
98	0x81a08b7c	-5.897487e-38
99	0x8221739a	-1.1861588e-37
100	0x02186d47	1.1198557e-37
101	0x8296df81	-2.2168804e-37
102	0x028391e3	1.9332455e-37
103	0x82486334	-1.4722149e-37
104	0x8298d021	-2.2453853e-37
105	0x02a0a944	2.360704e-37
106	0x02622674	1.6614893e-37
107	0x031ecc72	4.666672e-37
108	0x0303654b	3.861372e-37
109	0x81fd608a	-9.307605e-38
110	0x82655294	-1.6847962e-37
111	0x0313a43f	4.3387963e-37
112	0x01f59ed8	9.0226716e-38
113	0x828e9c76	-2.095483e-37
114	0x833e8198	-5.598475e-37
115	0x02fa35fc	3.6765184e-37
116	0x3daed72a	0.08537133
117	0x3e39e8b4	0.18155175
118	0x3c83afee	0.0160751
119	0x3d6089c0	0.05481887
120	0x3d622eb9	0.05522034
121	0xbe0bc0d7	-0.13647781
122	0xbd905f58	-0.070494354
123	0x3e191d4a	0.14952579
124	0xbd8677d7	-0.065658264
125	0xbda9319c	-0.08261415
126	0xbbccc010	-0.0062484816
127	0x3e21aebe	0.15789315
128	0x3e140faa	0.144591
129	0xbc82ee76	-0.015982848
130	0x3e0516b9	0.1299695
131	0xbe11e614	-0.14247924
132	0x3d6115b5	0.054952342
133	0x3dccc695	0.09998814
134	0x3d69fdcd	0.05712681
135	0xbe1bd4a5	-0.15217836
136	0xbe0ca1d4	-0.13733608
137	0xbe0dd381	-0.13850214
138	0x3dc6758e	0.096903905
139	0x3dcde5f6	0.10053627
140	0xbdfa7d98	-0.12230986
141	0xbe3715c0	-0.1787939
142	0x3d7bafa1	0.06144679
143	0x3d9e72e8	0.077367604
144	0x3c2687e7	0.010164238
145	0xbe1995c2	-0.14998534
146	0x3e14cb3a	0.1453065
147	0x3d973508	0.07383162
148	0x3d8dde8c	0.06927213
149	0x3df03e4b	0.117306314
150	0x3dbffad6	0.09374015
151	0xbe469307	-0.19392024
152	0x3d7dd60e	0.061971717
153	0xbe73d099	-0.23810042
154	0x3b350252	0.0027619791
155	0x3e1de32e	0.15418693
156	0xbdb47c45	-0.08812765
157	0x3dd8a252	0.10577835
158	0x3e32bad2	0.17454079
159	0x3b4fd8f3	0.0031715005
160	0xbc94eea6	-0.018180203
161	0x3ca86044	0.020553716
162	0xbd056bb4	-0.032573417
163	0x3dd6bbdd	0.10485051
164	0xbb22263a	-0.0024742023
165	0xbe1f7952	-0.15573624
166	0xbd41bf1a	-0.04730139
167	0x3db2c2be	0.087285504
168	0xbde78ad5	-0.11305777
169	0xbd8485f7	-0.06470864
170	0xbde3ce8b	-0.11123379
171	0xbd020717	-0.031745043
172	0xbdeaf4ca	-0.11472471
173	0xbe0b3b7a	-0.13596907
174	0x3d601c1b	0.054714303
175	0x3e193c46	0.14964399
176	0xbe05015e	-0.12988803
177	0x3e1f73b3	0.1557148
178	0x3e092543	0.1339312
179	0x3d773c3d	0.060360182
180	0x3d0d5a34	0.034509853
181	0xbd712974	-0.058877423
182	0x3ea081d0	0.3134904
183	0x3c53a8a1	0.012918622
184	0x3d497b11	0.04918963
185	0xbd2e3ad0	-0.042536557
186	0x3d9e9864	0.0774391
187	0x3e0aa300	0.13538742
188	0xbe4f80c5	-0.20263965
189	0xbd968d99	-0.07351226
190	0xbded2bd2	-0.11580624
191	0xbe0ffae7	-0.14060555
192	0xbe0961e5	-0.1341625
193	0x3e1542c3	0.14576249
194	0x3d4d34b4	0.05009909
195	0x3d532927	0.051552918
196	0x3e022fc6	0.12713537
197	0xbe2899e2	-0.16464952
198	0xbc7a4c6c	-0.015277009
199	0x3cad25fe	0.02113628
200	0x3e01e791	0.12685992
201	0xbe15c012	-0.1462405
202	0x3cf6a8ec	0.030109845
203	0x3e74a174	0.23889714
204	0x3c8db12e	0.0172964
205	0x3df43f5c	0.11926147
206	0x3dd86bfd	0.10567472
207	0x3d5733b8	0.052539557
208	0xbc4dbc4a	-0.012557099
209	0x3d25d9d2	0.040490933
210	0xbd9f8788	-0.077895224
211	0xbdd7b42d	-0.10532413
212	0x3e3314b5	0.17488368
213	0x3e40dc1c	0.18833965
214	0xbdd420a0	-0.10357785
215	0x3e3f9fb2	0.18713263
216	0xbd51b3a7	-0.05119672
217	0xba075ea8	-0.0005163946
218	0xbe054422	-0.13014272
219	0x3d9fb0a9	0.07797367
220	0xbe016356	-0.1263555
221	0x3d62b294	0.055346087
222	0x3de599f3	0.11211004
223	0xbe19162c	-0.14949864
224	0xbd5b1a1b	-0.053491693
225	0xbdb07e4a	-0.08617838
226	0x3e24218b	0.1602842
227	0x3d8764ea	0.06611045
228	0xbdf0e35f	-0.117621176
229	0x3df585bd	0.11988399
230	0x3db9f1b5	0.09079305
231	0x3e2f98d8	0.17148149
232	0x3e75f53b	0.24019329
233	0x3c91f547	0.017817153
234	0xbdf8e37f	-0.121527664
235	0xbdc75a3b	-0.09734007
236	0x3e164732	0.14675596
237	0x3d26d4e6	0.04073038
238	0xbbc4af6e	-0.006002358
239	0xbe178a8a	-0.14798942
240	0x3c6258de	0.013815133
241	0xbd743693	-0.05962236
242	0x3e319078	0.17340267
243	0xbddeb81c	-0.1087496
244	0x3d006c64	0.03135337
245	0xbde8a2ee	-0.11359201
246	0x3d95a3ad	0.07306609
247	0x3da827ba	0.08210702
248	0x3e3a37d5	0.1818536
249	0x3dd6dccc	0.104913324
250	0x3d85208c	0.065003484
251	0x3d50a61a	0.050939657
252	0xbd029ed6	-0.03188976
253	0x3d8b3f6e	0.06799208
254	0xbe08ef9d	-0.13372655
255	0xbd0a6056	-0.03378328

stack.0.bias f4 [64]
0	0x3d861241	0.065464504
1	0x3e5185e5	0.20461233
2	0xb38bf9bc	-6.518118e-08
3	0x82a8f8d0	-2.4828193e-37
4	0xbe4842f2	-0.19556788
5	0x3ccb7728	0.024837092
6	0xbd157cf9	-0.036496136
7	0xbe67f21d	-0.22650953
8	0x3d8474fb	0.06467625
9	0x3c3acfda	0.011402095
10	0x3d61e09c	0.055145845
11	0xbda3c4f9	-0.07996554
12	0x3e3ffdec	0.18749207
13	0xbe24ed1f	-0.1610608
14	0xbe61dae2	-0.22056153
15	0xbe7702c4	-0.24122149
16	0x3d8fa34d	0.07013569
17	0x3d9381a3	0.072024606
18	0xbe8aadb9	-0.27085665
19	0xbe1ccc13	-0.15312223
20	0x3e36cc82	0.17851451
21	0x3d631c23	0.055446755
22	0x3d865863	0.06559827
23	0x3e9d3a6f	0.30708644
24	0xbe41c554	-0.18922931
25	0x3e165496	0.14680704
26	0x3d1d3095	0.03837641
27	0x3d9d7f21	0.076902635
28	0xbe220c40	-0.15824986
29	0xbd9bb8f1	-0.07603634
30	0x9c08216c	-4.504182e-22
31	0x3d54766a	0.05187074
32	0x3dbb61d1	0.091495164
33	0xbd69e1bc	-0.057100043
34	0xbe03e8b5	-0.1288174
35	0x3e8d36ce	0.27580875
36	0xb4d178c8	-3.9017164e-07
37	0x3d0cea54	0.03440316
38	0xbd06bc06	-0.032894157
39	0xbe4a9d8f	-0.19786666
40	0xbe6ae1ef	-0.2293775
41	0x3e25512e	0.16144249
42	0x3e3782c4	0.17920977
43	0xbe13f0e3	-0.1444736
44	0xba8d13a4	-0.00107633
45	0x3b300500	0.002685845
46	0xbd0e8d5b	-0.034802776
47	0x3ddfe3f1	0.10932148
48	0x3d4c105c	0.04982029
49	0x3e159d79	0.14610852
50	0x3bddbb74	0.006766731
51	0xbd34dd62	-0.04415644
52	0x1f3fe3a5	4.0634126e-20
53	0x3e3cd9b2	0.18442419
54	0xbe891eee	-0.2678141
55	0x3cb1001f	0.021606503
56	0xb9f8793f	-0.00047392581
57	0x3d98bc73	0.07457819
58	0xbe6bbab3	-0.23020439
59	0x3d343c77	0.044002976
60	0x37b7a516	2.1892174e-05
61	0xbd028a90	-0.031870425
62	0x3e5e9cdf	0.21739529
63	0xbdf3514a	-0.11880739

stack.2.weight f4 [48, 64]
0	0x3d8dc9aa	0.0692323
1	0x3b759c53	0.003747721
2	0x363cd763	2.8139555e-06
3	0x821bd098	-1.1447465e-37
4	0xbc52ca83	-0.012865665
5	0x3d9a41a3	0.075320505
6	0x3d8068d1	0.06269992
7	0xbcfa736d	-0.030572617
8	0x3db16db5	0.08663503
9	0x3d831697	0.06400793
10	0xb95afdde	-0.00020884673
11	0xbd7a6c9e	-0.06113874
12	0x3d0ee564	0.034886733
13	0x3e01c5c9	0.12673105
14	0x3e058a0f	0.13040946
15	0xbd6077b4	-0.054801658
16	0xbdcc17cd	-0.09965477
17	0xbdeaa038	-0.114563406
18	0x3e1671a8	0.14691794
19	0xbd3764a2	-0.044773705
20	0x3dd0989f	0.1018536
21	0x3e0140eb	0.1262242
22	0xbd3687bf	-0.04456305
23	0xbe384f66	-0.17999038
24	0x3e080672	0.13283709
25	0xbccf8af9	-0.025334822
26	0xbc940c67	-0.01807232
27	0x3ca87857	0.020565195
28	0x3d7c8828	0.061653286
29	0x3c885de8	0.01664634
30	0x1a98f7f7	6.3266335e-23
31	0xbdfd4e1e	-0.12368415
32	0x3d64c0a4	0.05584778
33	0x3ce60288	0.028077379
34	0x3dc64e4b	0.09682902
35	0x3e16e924	0.14737374
36	0x30f660dc	1.7926385e-09
37	0xbd6c3891	-0.057671133
38	0x3e069a93	0.13144903
39	0x3d814884	0.063126594
40	0xbd626b27	-0.05527797
41	0xbbc625ac	-0.0060469713
42	0x3c7bed3c	0.015376385
43	0x3e1d6738	0.15371406
44	0xbb2ba39d	-0.002619005
45	0x3d9d38d7	0.07676857
46	0x3d89dad7	0.067311935
47	0xbdce1e81	-0.10064412
48	0x3d8f4c47	0.069969706
49	0xbdc3d3e1	-0.09561897
50	0x3c7f7c77	0.01559364
51	0xbd9c8342	-0.07642223
52	0xaa8efb2f	-2.539856e-13
53	0x3dbe6eb9	0.092984624
54	0x3cead39e	0.02866536
55	0xbd9b3fd7	-0.07580536
56	0x39f2255c	0.00046185672
57	0x3bfa80b9	0.0076447395
58	0xbd74788b	-0.05968527
59	0x3dd78a3c	0.10524413
60	0xb825e924	-3.9556195e-05
61	0xbd9ab02c	-0.07553133
62	0x3e0597c3	0.13046174
63	0x3d80a00e	0.06280528
64	0x3b4e3651	0.003146548
65	0x3d02913d	0.03187679
66	0x3901f25d	0.00012392686
67	0x02a8749a	2.4752307e-37
68	0xbd388e14	-0.04505737
69	0xbd80b792	-0.06285013
70	0xbd7494f2	-0.059712358
71	0x3c6c898c	0.014437091
72	0x3e1c99d5	0.15293057
73	0x3b554a18	0.0032545384
74	0x3e1b2994	0.1515258
75	0x3e1028e1	0.14078094
76	0xbd74dce6	-0.059780978
77	0x3e0d8fe3	0.1382442
78	0x3dcd3196	0.100192234
79	0xbcdfd699	-0.027324008
80	0xbd32410c	-0.043519065
81	0xbdf8323c	-0.121189564
82	0xbd51cde8	-0.051221758
83	0x3d88855a	0.0666606
84	0xbdb4217d	-0.0879545
85	0xbd41cda2	-0.047315247
86	0xbdd1aaf3	-0.10237684
87	0xbca0804e	-0.01959243
88	0x3e4f5f11	0.20251109
89	0x3db063c1	0.086127765
90	0xbdac95c1	-0.08427001
91	0xbddf83f4	-0.1091384
92	0x3cc3eedc	0.023917608
93	0x3cf6b6fc	0.03011655
94	0x1b955acf	2.4708666e-22
95	0xbe0c07b8	-0.1367482
96	0x3b8322f9	0.004001972
97	0xbcedb90d	-0.029018903
98	0x3dd4fa16	0.103992626
99	0xbd83ec35	-0.06441537
100	0x36081e9b	2.0283394e-06
101	0x3e01eee0	0.1268878
102	0xbd8c23a5	-0.06842736
103	0xbda11611	-0.07865537
104	0xbd39d4d5	-0.045368988
105	0x3dc92869	0.09822161
106	0x3de0ba60	0.10973048
107	0x3d51435b	0.051089626
108	0xbb0667e0	-0.0020508692
109	0x3c356971	0.0110725025
110	0x3ddbb09e	0.107270464
111	0xbdd2be37	-0.10290187
112	0x3d801e5e	0.06255792
113	0xbdb5bcb3	-0.08873882
114	0x3c871143	0.016487723
115	0xbe02e9b2	-0.1278446
116	0xada13926	-1.832896e-11
117	0xbdcab1c5	-0.09897188
118	0x3dbb2737	0.09138339
119	0xbd1e1736	-0.038596354
120	0xba824c4a	-0.0009940949
121	0xb85ac7ff	-5.216151e-05
122	0x3e2b3844	0.16720682
123	0xbd5500e1	-0.05200279
124	0xbbbf8a54	-0.0058453474
125	0xbd8f538d	-0.06998358
126	0x3de3e9cd	0.11128578
127	0x3baf72ac	0.005354246
128	0xbd9b69f0	-0.07588565
129	0xbc73410e	-0.014847053
130	0xb99992c9	-0.00029291798
131	0x82d6937c	-3.1529126e-37
132	0xbd6fe1a8	-0.058564812
133	0x3c2ce7e8	0.010553338
134	0x3d423106	0.047410034
135	0x3cc65201	0.024209024
136	0xbc98706a	-0.01860829
137	0xbd16076c	-0.03662817
138	0xbd064887	-0.03278401
139	0xbbd92bd9	-0.0066275415
140	0x3d9dd75d	0.07707093
141	0xbc7378f7	-0.014860383
142	0xbd134fe1	-0.03596485
143	0xba460ac7	-0.00075547065
144	0xbd6b10cf	-0.057389077
145	0x3dbe3e3e	0.092892155
146	0xbba93faf	-0.0051650624
147	0x3d9c5e3c	0.07635161
148	0xbd12f5b7	-0.035878863
149	0x3c8f9f20	0.017531931
150	0x3de1b687	0.110211425
151	0x3e0cc1bc	0.13745779
152	0x3c2cae1a	0.010539556
153	0xbd23f591	-0.040029112
154	0xbd23180e	-0.039817862
155	0xbc1d1671	-0.00958787
156	0x3db231d3	0.087009095
157	0x3c470482	0.012147071
158	0x2bb34959	1.2739073e-12
159	0x3dbafd85	0.09130386
160	0xbd957ceb	-0.07299217
161	0xbda29616	-0.07938783
162	0xbb6afe7d	-0.0035857253
163	0x3cf5e71a	0.030017424
164	0xba8bd496	-0.0010668214
165	0x3da432e3	0.08017518
166	0x3c912331	0.017716976
167	0xbcc5b478	-0.024133906
168	0x3c046997	0.008081815
169	0x3d4805f8	0.048833817
170	0xbd11e075	-0.03561445
171	0x3d2b5613	0.041830134
172	0x3b95191c	0.0045501124
173	0x3d6d7c31	0.057979766
174	0x3cb936f4	0.022609212
175	0xbb17d5b1	-0.0023168141
176	0xbdbcd2b3	-0.09219875
177	0xbcae6eac	-0.021293007
178	0xbd4023b1	-0.046909038
179	0x3ceb3f53	0.028716719
180	0xb889e2c6	-6.574909e-05
181	0xbc929c26	-0.017896723
182	0xbb553390	-0.0032531954
183	0x3d5566b4	0.0520999
184	0xbb4c7324	-0.003119656
185	0x3c5717f3	0.0131282685
186	0x3d97971f	0.07401871
187	0x3d93e25b	0.07220908
188	0x82a727d7	-2.4561312e-37
189	0x3d851d61	0.06499744
190	0xbcda8397	-0.026674075
191	0xbca83b5c	-0.020536117
192	0x3df6eb8d	0.120566465
193	0xbc679edc	-0.014136996
194	0xba71b190	-0.0009219879
195	0x8291af29	-2.1406372e-37
196	0xbd89679a	-0.067092136
197	0xbbf15903	-0.0073653474
198	0x3c2d5c63	0.010581109
199	0xbd30ec34	-0.04319401
200	0x3db3315e	0.087496504
201	0x3d71d221	0.059038285
202	0xbb65d545	-0.0035069745
203	0x3d33d9e1	0.043908957
204	0xbbd0e299	-0.006374669
205	0x3dd1a0d4	0.10235754
206	0x3dbe1e6d	0.09283147
207	0xbd95119b	-0.072787486
208	0x3db81548	0.08988434
209	0x3e08bc93	0.13353185
210	0x3df39ac5	0.11894754
211	0x3dbfc7f2	0.093643084
212	0xbd8883de	-0.06665777
213	0xbd23e4a7	-0.04001298
214	0x3dba4661	0.09095455
215	0x3e01b38d	0.1266615
216	0xbd61897e	-0.055062763
217	0x3d09a5c9	0.03360537
218	0x3dd491cb	0.1037937
219	0xbc32b94d	-0.010908437
220	0xbd90cffb	-0.07070919
221	0x3dac905c	0.08425972
222	0x97b6f662	-1.182367e-24
223	0x3bb44cf9	0.00550234
224	0x3df7c269	0.12097628
225	0xbd25de71	-0.04049534
226	0x3d85156b	0.06498226
227	0x3dab7ea7	0.083737664
228	0xb5aba2b0	-1.2787841e-06
229	0x3d2b1d14	0.041775778
230	0xbdbc1736	-0.09184115
231	0xbcc11cd9	-0.023573326
232	0xbd7598ec	-0.05996029
233	0xbceac30e	-0.028657462
234	0xbdc055e9	-0.09391386
235	0x3cee4994	0.02908782
236	0x3b12c1cb	0.0022393342
237	0xbdb70a7a	-0.08937545
238	0x3c96048d	0.018312717
239	0xbe0140ae	-0.1262233
240	0xbc562fdc	-0.013072934
241	0xbcb53b56	-0.02212302
242	0x3db463a9	0.08808071
243	0x3df9a54a	0.121897295
244	0x26661ee5	7.983915e-16
245	0xbca7e847	-0.0204965
246	0xbce72528	-0.02821596
247	0xbe03696f	-0.12833188
248	0x3aef74f8	0.0018269112
249	0x3d44d625	0.048055787
250	0xbb6e09b3	-0.00363217
251	0xbdc3ef6e	-0.09567152
252	0x02b9e499	2.7314515e-37
253	0x3db4175e	0.087935194
254	0xbc48061d	-0.012208489
255	0xbdaf3610	-0.085552335

stack.2.bias f4 [48]
0	0x3ceed373	0.029153561
1	0xbe0f5cd8	-0.14000261
2	0x3dafff90	0.085936666
3	0x3c457774	0.012052406
4	0x3dcfaa1b	0.10139867
5	0xbe455b74	-0.19273168
6	0x3e025074	0.12726003
7	0x3dba456f	0.09095275
8	0x0284c1cd	1.9506893e-37
9	0x3e38ff1d	0.18066068
10	0x3e19693d	0.14981551
11	0x3e3f8acc	0.1870529
12	0xbcbdf89f	-0.02318984
13	0xbe31e693	-0.17373113
14	0xbe3eeec5	-0.18645771
15	0x3d81bda5	0.06335
16	0xbd6d69a1	-0.057962064
17	0xbd8c3792	-0.06846537
18	0x3e1245f1	0.14284493
19	0xbd9072a3	-0.07053115
20	0x3d27d722	0.04097665
21	0x3e62456b	0.22096793
22	0xbe197bcc	-0.14988631
23	0x02b48f40	2.6530844e-37
24	0x3d574018	0.05255136
25	0xbd7a7f5a	-0.06115661
26	0xbd8b2400	-0.06793976
27	0x3e58a074	0.21154958
28	0xbe3a055a	-0.18166104
29	0x829bc852	-2.2890181e-37
30	0x82bafb18	-2.7474364e-37
31	0x3cff5949	0.031170504
32	0x3d3f69af	0.046731647
33	0x3d92c971	0.07167328
34	0x3e04ab2c	0.12955922
35	0xbd973720	-0.07383561
36	0xbd560c14	-0.052257612
37	0xbdd91581	-0.10599805
38	0x82c012e2	-2.8222703e-37
39	0xbdc51c41	-0.0962453
40	0xbe4780df	-0.19482754
41	0xbd59fb76	-0.053218327
42	0x3e20b8d7	0.15695511
43	0xbe3795f0	-0.1792829
44	0xbd98f8d8	-0.07469338
45	0x82a62344	-2.441175e-37
46	0xbe0acd5e	-0.13554904
47	0x3d937ba6	0.072013184

stack.4.weight f4 [48, 48]
0	0x3de965c4	0.113963634
1	0xb9b7d684	-0.00035064307
2	0xbe8b4a16	-0.2720496
3	0xbdb01fe0	-0.0859983
4	0xbe25b8ce	-0.16183779
5	0x3e22a768	0.15884173
6	0xbc8d86e9	-0.017276244
7	0x3d2231c1	0.03959823
8	0x01495de4	3.6985233e-38
9	0x3d3612ef	0.04445165
10	0xbe22efff	-0.15911864
11	0xbd2196df	-0.039450523
12	0x3d504730	0.05084914
13	0x3e047ffc	0.12939447
14	0xbb41c601	-0.0029567482
15	0xbdea05f8	-0.1142692
16	0x3e29aec6	0.16570577
17	0x3e01fee8	0.12694895
18	0xbe00eae0	-0.12589598
19	0x3df04f85	0.11733917
20	0xbe0e457e	-0.13893697
21	0xbd05d80a	-0.032676734
22	0x3dba00b3	0.090821646
23	0x82a96126	-2.4888079e-37
24	0xbdba5460	-0.090981245
25	0x3e3c0b8d	0.18363781
26	0xbd70ae44	-0.058759943
27	0xbdc7fdb5	-0.09765188
28	0x3e20f6c6	0.15719137
29	0x07fc4147	3.7955112e-34
30	0x2d88d110	1.5554252e-11
31	0x3e25beb8	0.16186035
32	0x3d020d95	0.031751234
33	0xbe4171e9	-0.1889111
34	0xbd94c1ab	-0.07263502
35	0x3cef90b4	0.029243805
36	0x3d968dcd	0.07351265
37	0x3dad6df4	0.084682375
38	0x9f8058f6	-5.435728e-20
39	0x3e55917d	0.2085628
40	0xbd85be68	-0.06530458
41	0x3e1552dc	0.1458239
42	0xbd4b3934	-0.0496151
43	0x3da1a24b	0.07892283
44	0x3e05e7c1	0.13076688
45	0x010b8131	2.5622958e-38
46	0x3daf68b3	0.08564892
47	0xbda24924	-0.07924107
48	0xbcdb1023	-0.026741093
49	0xbe28c326	-0.16480693
50	0x3e89300f	0.26794478
51	0x3e5aa0f5	0.21350463
52	0xbdbb079b	-0.0913231
53	0xbc64d519	-0.013966822
54	0xbd09edaa	-0.03367392
55	0x3da7f02d	0.08200107
56	0x016b7256	4.3244715e-38
57	0x3df5d5f3	0.12003698
58	0x3e2f7ed3	0.17138223
59	0x3ddbb7b7	0.107284
60	0x3c5da7e9	0.013528802
61	0x3dfb7287	0.12277704
62	0xbe07b90a	-0.1325418
63	0x3da7edc2	0.081996456
64	0xbd43c492	-0.047794886
65	0xbcd82eaf	-0.026389448
66	0xbdcbf667	-0.09959107
67	0x3c9920c1	0.018692376
68	0x3bce2c51	0.006291904
69	0x3d85830b	0.06519135
70	0xbc116dac	-0.0088762455
71	0x02b99e1e	2.7274062e-37
72	0x3d4e7265	0.050402064
73	0x3d1a916f	0.037736353
74	0xbcaa223a	-0.020768274
75	0x3e3ebf7f	0.18627737
76	0x3d541baf	0.051784214
77	0x82c7f87e	-2.938305e-37
78	0xa9aae4fe	-7.5892404e-14
79	0x3de67422	0.11252619
80	0x3daa841b	0.08325978
81	0xbd339457	-0.04384264
82	0x3c6d49e3	0.014482948
83	0x3d17434c	0.036929414
84	0xbe1c7099	-0.15277328
85	0x3df91b33	0.12163391
86	0x15d30633	8.5232e-26
87	0xbe3d08a5	-0.18460329
88	0xbda0e7f2	-0.0785674
89	0xbe1dcb8d	-0.1540968
90	0xbd8463b2	-0.06464328
91	0xbdf05bdd	-0.117362715
92	0xbe2c2943	-0.16812615
93	0x028542f1	1.9581016e-37
94	0xbb080ba8	-0.00207589
95	0xbaaa8d9b	-0.0013012172
96	0x82b58f30	-2.6677745e-37
97	0x82c563d6	-2.9003851e-37
98	0x82b90382	-2.718532e-37
99	0x02152ddf	1.0959956e-37
100	0x82c880b8	-2.946124e-37
101	0x82b568ed	-2.6655784e-37
102	0x82c15c66	-2.8411835e-37
103	0x82b69d61	-2.6832828e-37
104	0x82dd9971	-3.2561102e-37
105	0x82bb9ec1	-2.75683e-37
106	0x82c65081	-2.9139692e-37
107	0x82c5c305	-2.9058484e-37
108	0x82bb00c4	-2.747762e-37
109	0x82c60e67	-2.9101752e-37
110	0x82c50581	-2.8949707e-37
111	0x82cc0884	-2.9979994e-37
112	0x82c33bb8	-2.8686952e-37
113	0x89742cc6	-2.9391484e-33
114	0x82ba6f04	-2.7393964e-37
115	0x82b666df	-2.6801542e-37
116	0x82952ca3	-2.1919203e-37
117	0x82c25cc1	-2.8558976e-37
118	0x82cb72dd	-2.9894097e-37
119	0x0349162b	5.909404e-37
120	0x82c7b230	-2.9342697e-37
121	0x82c3160d	-2.8665331e-37
122	0x82bdfa6e	-2.7914794e-37
123	0x82c502e8	-2.8948216e-37
124	0x82b9378b	-2.7215187e-37
125	0x82d0e31c	-3.0693208e-37
126	0x0285ded8	1.96705e-37
127	0x82b6315a	-2.6770823e-37
128	0x82cbab96	-2.9926655e-37
129	0x82c96478	-2.9591962e-37
130	0x82b8ffda	-2.7183222e-37
131	0x82bca1a8	-2.7716903e-37
132	0x823b4478	-1.375824e-37
133	0x82ba971c	-2.7416976e-37
134	0x81fa6033	-9.1973535e-38
135	0x82b9c211	-2.7294696e-37
136	0x82b8c6a8	-2.7150393e-37
137	0x82c01a42	-2.8226936e-37
138	0x82b98ab4	-2.7262919e-37
139	0x82b53f90	-2.6632043e-37
140	0x82b93fba	-2.7219884e-37
141	0x00e643be	2.1146465e-38
142	0x82bff3aa	-2.8204784e-37
143	0x82c1313b	-2.8387058e-37
144	0xbd2f8d14	-0.042859152
145	0xbcc291ae	-0.023751106
146	0xb3f6f9b9	-1.1500692e-07
147	0xba416a16	-0.0007378174
148	0xbce8509b	-0.028358748
149	0x3d240e58	0.04005274
150	0xbd84bce8	-0.064813435
151	0xbb7ca9ef	-0.0038553437
152	0x80e4d568	-2.1015049e-38
153	0x3d532bba	0.051555373
154	0x3ca930b8	0.020653114
155	0xbc26b151	-0.010174111
156	0xbce2b476	-0.027673941
157	0xbd2b0abb	-0.04175828
158	0xbad200f5	-0.0016022014
159	0x3c615866	0.013753986
160	0xbd53b2e2	-0.051684268
161	0xbd009078	-0.031387776
162	0x3d4ee1c0	0.05050826
163	0x3c1396d5	0.009008129
164	0xbb382136	-0.0028095967
165	0x3afbbff1	0.0019206983
166	0xbcb0d062	-0.02158374
167	0x14fa3543	2.5264557e-26
168	0x3d11d861	0.035606746
169	0x3b8d6e1a	0.0043161036
170	0xbbf0f93d	-0.0073539303
171	0xbc83a3bc	-0.016069286
172	0x3d3228d0	0.043495953
173	0x02a6fb8c	2.4535889e-37
174	0x82acc003	-2.5383338e-37
175	0xbd3a31d1	-0.045457665
176	0x3bed585b	0.007243199
177	0x3c69ae52	0.014262753
178	0x3ba8d054	0.005151788
179	0x3ca4a5c2	0.02009857
180	0xba10e173	-0.00055267586
181	0x3db02501	0.08600808
182	0x0369dd10	6.8726313e-37
183	0xba5d72cd	-0.00084475876
184	0x3d03a92b	0.032143753
185	0xbd1e63bc	-0.038669333
186	0x3c84dff8	0.016220078
187	0xbcc28bc9	-0.023748295
188	0xbb077e41	-0.0020674618
189	0x82aad30a	-2.5100385e-37
190	0x3d0e812a	0.03479115
191	0xbd011dbb	-0.031522494
192	0x3cb8d206	0.022561084
193	0xbd36309e	-0.04447996
194	0xbe85349a	-0.26016694
195	0xbd7b617c	-0.061372265
196	0xbe2a15c4	-0.16609865
197	0xbd746f2e	-0.05967634
198	0xbd800f25	-0.062528886
199	0xbda5d0f5	-0.08096496
200	0x8260819a	-1.6494115e-37
201	0xbda508e2	-0.08058335
202	0x3d214f27	0.039382126
203	0xbc6c299a	-0.014414215
204	0x3dbdcc13	0.0926744
205	0x3ddc63a6	0.10761194
206	0xbd1c299b	-0.038125616
207	0x3b6dc8f7	0.0036283114
208	0x3da56263	0.080754064
209	0x3d57d65d	0.052694667
210	0x3da0335d	0.07822297
211	0x3e06159a	0.13094178
212	0xbd63a523	-0.05557741
213	0xbdadc3f3	-0.0848464
214	0x3d7d71e5	0.061876196
215	0x02a639a2	2.4424587e-37
216	0x3d2f4e44	0.04279925
217	0xbd7049f3	-0.058664273
218	0xbc424249	-0.011856624
219	0xbe0e78c5	-0.13913257
220	0xbc8b959b	-0.01703911
221	0x02c15e7c	2.8413033e-37
222	0x189ed399	4.10557e-24
223	0xbd49e282	-0.04928828
224	0x3e09fb45	0.13474758
225	0xbdd81279	-0.105503984
226	0xbd6c66c2	-0.057715185
227	0x3d8f8480	0.07007694
228	0x3e82ea07	0.25569174
229	0x3d45623e	0.048189394
230	0x82b22b38	-2.6179556e-37
231	0x3e3a4ebe	0.181941
232	0x3d2abdda	0.041684963
233	0x3e0ee290	0.13953614
234	0xbcd9d7f0	-0.026592225
235	0x3d7e23e8	0.06204596
236	0xbd63ef7f	-0.055648323
237	0x0364deac	6.7258793e-37
238	0xbdbd27e8	-0.09236127
239	0x3cc05c45	0.023481498
240	0x02999e14	2.2572062e-37
241	0x829949ec	-2.2523759e-37
242	0x035320cd	6.204498e-37
243	0x8283c19a	-1.9359842e-37
244	0x82646034	-1.6778403e-37
245	0x02781e18	1.8228799e-37
246	0x029c7877	2.2991283e-37
247	0x026c4676	1.7358763e-37
248	0x82f83ed5	-3.6476389e-37
249	0x81926608	-5.377834e-38
250	0x829a74b1	-2.2695244e-37
251	0x82a085ac	-2.358661e-37
252	0x02a0fd9c	2.3655452e-37
253	0x02f41d7c	3.58695e-37
254	0x830d3e84	-4.150794e-37
255	0x029cb68a	2.3026912e-37

stack.4.bias f4 [48]
0	0xbd991aa9	-0.07475788
1	0x3e45a13c	0.19299787
2	0x82aa28b6	-2.5002622e-37
3	0xbc831350	-0.01600042
4	0xbe07eacf	-0.13273166
5	0x0286a96c	1.9786774e-37
6	0xbd049e1a	-0.03237734
7	0x3d191c77	0.03738066
8	0x82acf794	-2.5415231e-37
9	0x02b79796	2.697644e-37
10	0xbc7923b9	-0.015206271
11	0x826d4a62	-1.7433357e-37
12	0xbe27bd39	-0.16380776
13	0x3d36a9ac	0.044595405
14	0xbe2d842e	-0.16944954
15	0x02045af4	9.723931e-38
16	0x035240b7	6.1787742e-37
17	0x3d94a048	0.07257134
18	0xbdb8e86b	-0.09028705
19	0xbe37b83e	-0.17941377
20	0xa31cf2b1	-8.508169e-18
21	0xab45fd08	-7.033961e-13
22	0x3dfdf44e	0.12400113
23	0x3dc594fc	0.09647557
24	0x02c1bfc0	2.846886e-37
25	0xbdda4c5d	-0.106590964
26	0x3e2a04c1	0.16603376
27	0xbad55bdd	-0.0016277988
28	0xbe3067ae	-0.1722705
29	0x3e4c650f	0.19960426
30	0xbe3adae5	-0.18247564
31	0xba79e854	-0.0009533216
32	0x3e360ae7	0.17777596
33	0x3e36fd06	0.17869958
34	0x3cadad96	0.021200936
35	0x3d27c9dd	0.040963996
36	0x829889ec	-2.2413556e-37
37	0x8294b45d	-2.185017e-37
38	0xbdb31e20	-0.0874598
39	0xbdc703b5	-0.09717504
40	0x829cab1d	-2.3020354e-37
41	0xbe40580a	-0.18783584
42	0x3cffa001	0.031204225
43	0xbe5adc26	-0.21373042
44	0xbe08b031	-0.13348462
45	0xbb6b8db6	-0.003594262
46	0xbd29ff2d	-0.04150312
47	0x3debee14	0.11520019

stack.6.weight f4 [32, 48]
0	0xaa414d18	-1.7168591e-13
1	0x99f4f025	-2.5326002e-23
2	0x028f348a	2.1042117e-37
3	0x02dfcb97	3.288376e-37
4	0x82b5c372	-2.670774e-37
5	0x8291b8d0	-2.1411912e-37
6	0x80f467e6	-2.2445133e-38
7	0xa4e19ab8	-9.78403e-17
8	0x8281c5c0	-1.906835e-37
9	0x828a6de9	-2.0340363e-37
10	0x020ed3a4	1.049325e-37
11	0x03126a39	4.302748e-37
12	0xaeb0d35f	-8.0411004e-11
13	0x98c5913b	-5.106995e-24
14	0x01929844	5.385042e-38
15	0x0095bc60	1.3751065e-38
16	0x823f3cc1	-1.4049899e-37
17	0x8329d5c7	-4.991004e-37
18	0x8271d768	-1.7767702e-37
19	0xa77c1cc4	-3.498762e-15
20	0x0284c422	1.9508232e-37
21	0x828357ea	-1.929918e-37
22	0x97a34168	-1.0550139e-24
23	0x9645af21	-1.5968794e-25
24	0x021bafa8	1.1438012e-37
25	0x02adce53	2.553849e-37
26	0x9991a6e7	-1.506006e-23
27	0xabcf0d87	-1.4711989e-12
28	0xac5ecd05	-3.1661906e-12
29	0xb4e3a186	-4.239957e-07
30	0xaecf83b8	-9.436668e-11
31	0x827b6b70	-1.8471401e-37
32	0xa5b6cd33	-3.1711016e-16
33	0xb212068c	-8.499807e-09
34	0xacaa5bca	-4.8418812e-12
35	0x0225c35e	1.2178353e-37
36	0x01e6a00e	8.4718324e-38
37	0x821b377f	-1.1403528e-37
38	0xa8819c67	-1.4389706e-14
39	0x01b8b18f	6.784571e-38
40	0x026011c3	1.6462018e-37
41	0x81750bef	-4.5007955e-38
42	0x830615ef	-3.940424e-37
43	0xa32afe0c	-9.269515e-18
44	0xa2228fa2	-2.2031133e-18
45	0xa528e6a0	-1.4649816e-16
46	0xb1cf4bbc	-6.033103e-09
47	0xb31d46a0	-3.6618644e-08
48	0xb4099c4b	-1.2815978e-07
49	0xb3b96e0c	-8.634751e-08
50	0x80ff9408	-2.3471155e-38
51	0x2bc61569	1.4074689e-12
52	0xb0a93856	-1.231238e-09
53	0x824f1630	-1.5214326e-37
54	0xa700db79	-1.7882545e-15
55	0xb484049c	-2.459027e-07
56	0x8251502f	-1.5377907e-37
57	0x03565b7e	6.2993976e-37
58	0x30f4c1a3	1.7808371e-09
59	0x03493dec	5.9139674e-37
60	0xb4b89e06	-3.4387648e-07
61	0xb36c09bd	-5.495689e-08
62	0x96eb4f70	-3.801643e-25
63	0x8351c976	-6.1650846e-37
64	0x83087158	-4.009692e-37
65	0x832d5524	-5.0937867e-37
66	0x26ee439a	1.6532891e-15
67	0xb3dcc095	-1.0279579e-07
68	0x02a7474c	2.4579367e-37
69	0x828f48da	-2.1053776e-37
70	0xb406847b	-1.2527919e-07
71	0xb4124f41	-1.3626142e-07
72	0x829f40bb	-2.3400104e-37
73	0x005651ec	7.927241e-39
74	0xb441e2d8	-1.8057051e-07
75	0xb4ed930e	-4.4251686e-07
76	0xb45eb898	-2.0742516e-07
77	0x365ff817	3.3373997e-06
78	0xb4d0d35e	-3.889681e-07
79	0x2b046cd6	4.704686e-13
80	0xb4916daf	-2.708816e-07
81	0xb5c08bf5	-1.4345848e-06
82	0xb46d6522	-2.2109137e-07
83	0x2ce110e4	6.39676e-12
84	0x82349f1b	-1.3269972e-37
85	0x82b42e77	-2.6475292e-37
86	0xb4298c27	-1.5790339e-07
87	0x2d0ef22a	8.125537e-12
88	0x8254a2d5	-1.5622031e-37
89	0x82124c46	-1.0748275e-37
90	0x028f4c3c	2.1055718e-37
91	0xb3e24486	-1.05364094e-07
92	0xb351645a	-4.8752874e-08
93	0xb243e071	-1.1401526e-08
94	0xb5810a01	-9.61416e-07
95	0xb60453c1	-1.9718284e-06
96	0xbe1ed97d	-0.15512653
97	0x38fa93b6	0.00011948442
98	0x8cb65ce5	-2.809745e-31
99	0x3c9e5779	0.01932882
100	0xbc282dc3	-0.010264817
101	0x825c3bf6	-1.6180255e-37
102	0xbe87219f	-0.26392838
103	0x3e17e824	0.14834648
104	0x826831a3	-1.7058913e-37
105	0x9d5f69e3	-2.9568546e-21
106	0xbd96b167	-0.073580556
107	0x028bdb3e	2.0550053e-37
108	0xbd40cb15	-0.047068674
109	0x3c82c80b	0.015964529
110	0xbe0b19b6	-0.13584027
111	0x8247f576	-1.4690655e-37
112	0x36d6db5c	6.403234e-06
113	0x3e858843	0.26080522
114	0xbe5ad799	-0.21371306
115	0xbdafdba0	-0.08586812
116	0x0323e2ce	4.8161754e-37
117	0x82b7d53c	-2.7011824e-37
118	0x3e6171a6	0.2201601
119	0xbd9e9a4c	-0.077442735
120	0x02bb1b4c	2.7492848e-37
121	0x3e8093f0	0.25112867
122	0xbd0562aa	-0.032564797
123	0x3d860325	0.065435685
124	0x3ca9c1a3	0.020722216
125	0x3de47469	0.11155016
126	0xbdccd194	-0.10000911
127	0x399e25d8	0.00030164304
128	0x3d6f9e79	0.05850074
129	0x3dc1546a	0.09439929
130	0xbd720b2d	-0.05909269
131	0x3b1d0822	0.0023961146
132	0x8273d50a	-1.791396e-37
133	0x8266c56a	-1.6954386e-37
134	0x3d6e0a76	0.058115445
135	0xbe8bbd5b	-0.27292904
136	0x82b970de	-2.724809e-37
137	0xbe472f4d	-0.19451638
138	0xbeac70e8	-0.3367989
139	0xbcbe5d78	-0.023237929
140	0x3c31090f	0.010805382
141	0xbd2e0edf	-0.04249465
142	0x3af3229d	0.0018549744
143	0x3da639d8	0.081165016
144	0x3d81e79d	0.06343005
145	0xbe1cdd1d	-0.15318723
146	0x02b65c58	2.67955e-37
147	0xb88f0fad	-6.821691e-05
148	0xbdaf1b0a	-0.08550079
149	0x821d0066	-1.1534653e-37
150	0x3eb5e7ec	0.35528505
151	0xbd0beaab	-0.034159344
152	0x02cef867	3.0411555e-37
153	0x022148a6	1.1849261e-37
154	0x3dc166a2	0.09443404
155	0x0019fa24	2.385621e-39
156	0x3d3c05ee	0.045904092
157	0x3e156325	0.14588602
158	0x3dabf609	0.08396537
159	0x8353e452	-6.2269426e-37
160	0xad9890a9	-1.7344641e-11
161	0xbe4d96fd	-0.20077129
162	0x3e549f21	0.20763828
163	0xbdaea2ad	-0.08527122
164	0x02ac06b4	2.5276976e-37
165	0xb2cf2533	-2.4114888e-08
166	0xbdf72c00	-0.12068939
167	0xbd9e2ac0	-0.07722998
168	0x82becc73	-2.803534e-37
169	0xbde230a4	-0.11044434
170	0xbb54c378	-0.0032465141
171	0x3e1d1285	0.15339096
172	0xbd228d77	-0.039685693
173	0x3dd39b06	0.10332303
174	0x3d5b7fcc	0.053588673
175	0xb98ef935	-0.00027270024
176	0xbe463e98	-0.19359815
177	0x3d876a10	0.06612027
178	0x3e0094e3	0.12556796
179	0xbc8f379d	-0.017482573
180	0x8252e59e	-1.549426e-37
181	0x0279ede8	1.8361907e-37
182	0x3d716ad3	0.058939766
183	0x3e885cba	0.26633245
184	0x02c4ea3f	2.8934062e-37
185	0x3dd9818c	0.10620412
186	0x3e446b34	0.1918152
187	0x3e8132ac	0.25233972
188	0x3dbef6f1	0.09324444
189	0x3e2918d9	0.16513385
190	0x3e120b9f	0.14262246
191	0x3e2b26e6	0.16714057
192	0x02b20fde	2.6163857e-37
193	0x02bb66cc	2.7536183e-37
194	0x81848f22	-4.869453e-38
195	0x0345989c	5.8068284e-37
196	0x8219fd60	-1.131338e-37
197	0x028aed3c	2.0413443e-37
198	0x020e975b	1.0475949e-37
199	0x023669b2	1.3401581e-37
200	0x81743b8e	-4.485845e-38
201	0x833e4b9c	-5.5922777e-37
202	0x822673d8	-1.2228999e-37
203	0x82922bec	-2.1477982e-37
204	0x820aea93	-1.0205958e-37
205	0x0292fbb8	2.1597251e-37
206	0x82f089a4	-3.5343832e-37
207	0x8333fcb2	-5.289345e-37
208	0x820c0921	-1.0288195e-37
209	0x02d7235b	3.1611704e-37
210	0x02b9c00f	2.7293543e-37
211	0x0313b1b0	4.3403393e-37
212	0x01699597	4.2902667e-38
213	0x02fbaed4	3.6981482e-37
214	0x832ca13f	-5.073136e-37
215	0x0283003f	1.9248861e-37
216	0x0249bcf5	1.4821376e-37
217	0x02c9d44f	2.9656155e-37
218	0x82941c04	-2.1762726e-37
219	0x82959d7e	-2.1983978e-37
220	0x8366df8a	-6.7847535e-37
221	0x82d10c50	-3.0716857e-37
222	0x82e9b482	-3.433988e-37
223	0x82523552	-1.5443666e-37
224	0x027e8cc1	1.8701367e-37
225	0x81fd8851	-9.3133127e-38
226	0x019b1700	5.697101e-38
227	0x8332278f	-5.235491e-37
228	0x027bc6d0	1.8497624e-37
229	0x02b5cf0b	2.6714397e-37
230	0x81aab42b	-6.2706666e-38
231	0x830b8943	-4.1005997e-37
232	0x033925a7	5.4409836e-37
233	0x831ee3bc	-4.6693453e-37
234	0x024a2985	1.4852532e-37
235	0x82d92d4f	-3.191129e-37
236	0x0301ca9f	3.814229e-37
237	0x02d3d48e	3.1125664e-37
238	0x01a22407	5.95611e-38
239	0x02785356	1.8244079e-37
240	0xbade0827	-0.0016939685
241	0xbcefb6b4	-0.029261924
242	0x0300756c	3.7750613e-37
243	0x3cb1f4b9	0.021723138
244	0xbccd985d	-0.025097067
245	0x82999328	-2.2565793e-37
246	0x02a6df62	2.4519723e-37
247	0xbc25f147	-0.010128326
248	0x029a8ba0	2.2708407e-37
249	0x82eb4c9b	-3.4574116e-37
250	0x3ccbe78b	0.024890682
251	0x02d3021d	3.1004876e-37
252	0x3c9314e7	0.017954303
253	0xbcb78fa6	-0.022407364
254	0x8289d260	-2.025109e-37
255	0x02de205c	3.2638542e-37

stack.6.bias f4 [32]
0	0x82a110b9	-2.3666422e-37
1	0xb24a7e0e	-1.1786609e-08
2	0x3e4016f0	0.1875875
3	0xbdb08c58	-0.086205184
4	0x81ea9ea2	-8.618565e-38
5	0x3d524300	0.051333427
6	0x0062b238	9.063811e-39
7	0x3c1a57da	0.0094203595
8	0xbd0c6bfb	-0.034282666
9	0x3de501fb	0.11182018
10	0x3e13765c	0.1440062
11	0xbe2f6d0a	-0.17131439
12	0x3d50a1bb	0.05093549
13	0x3df4a0c9	0.1194473
14	0x3db511cc	0.08841285
15	0xbcd4e25b	-0.025986841
16	0x3e151d63	0.14561991
17	0x3d5e2d57	0.05424246
18	0xbd8d04d4	-0.068856865
19	0xbdcbc42a	-0.09949525
20	0x305ae3d7	7.963172e-10
21	0x3d9cfff2	0.07666005
22	0x82889892	-2.0070975e-37
23	0xbd8ca4dd	-0.06867383
24	0x3dcc1889	0.09965617
25	0x3e01be29	0.12670197
26	0x82ad1ce2	-2.5436643e-37
27	0x3d2133a8	0.039355904
28	0x3d86dfeb	0.06585678
29	0x3ce19384	0.027536161
30	0x029a0836	2.263298e-37
31	0x3e22511a	0.1585125

stack.8.weight f4 [1, 32]
0	0xbac2e90b	-0.0014870478
1	0xb92271c8	-0.00015491911
2	0x3e8d86f7	0.27642033
3	0xbdba381f	-0.090927355
4	0x01686e58	4.2690838e-38
5	0x3c88eb3c	0.016713731
6	0x024335a3	1.434173e-37
7	0x3e00599a	0.1253418
8	0xbe22a2a8	-0.15882361
9	0x3e8c47c8	0.27398515
10	0x3d8f43d4	0.06995359
11	0xbe5c158c	-0.21492594
12	0x3d09d6e7	0.033652212
13	0x3e63a6a6	0.2223154
14	0x3e88745f	0.26651284
15	0x3e55ebc5	0.2089072
16	0x3ddf56b7	0.109052114
17	0xbe177c61	-0.1479354
18	0xbdafa6fe	-0.08576773
19	0xbe1390f6	-0.14410767
20	0x1ed872e5	2.2917409e-20
21	0xbe15b335	-0.14619143
22	0x0003a086	3.33091e-40
23	0xbe43d555	-0.19124348
24	0x3d66106a	0.056167997
25	0x3e940c39	0.28915575
26	0xadd9f4c6	-2.4778745e-11
27	0x3dc1fefb	0.09472462
28	0x3e398869	0.18118443
29	0x3c4300a6	0.01190201
30	0x831e957a	-4.6603618e-37
31	0x3e8a3c72	0.2699924
